checkpoint_critic1.pth (torch_old, 537943 bytes, 13 tensors)

fc1.weight f4 [400, 24]
0	0xbd971bad	-0.073783256
1	0x3c2f07fe	0.010683058
2	0xbc5fb4f3	-0.0136539815
3	0xbc0fc520	-0.008775026
4	0xbee63d2f	-0.44968554
5	0xbfe96650	-1.8234348
6	0x3cb515c9	0.022105115
7	0xbd88dcc8	-0.06682736
8	0xbb4e4c41	-0.0031478556
9	0xbe913d04	-0.28366864
10	0x3c80855a	0.015688587
11	0xbdefea88	-0.11714655
12	0x3e19defa	0.15026465
13	0xbf2944af	-0.6612043
14	0xbd2631c4	-0.040574804
15	0xbe575eda	-0.21032277
16	0x3df0ebfe	0.11763762
17	0xbf49fa19	-0.78897244
18	0xbc110890	-0.008852139
19	0xbe7e3776	-0.24825844
20	0x3ecb720d	0.3973545
21	0x3fe52eb7	1.7904881
22	0x3bd61491	0.0065332134
23	0xbe696da0	-0.22795725
24	0xbf136c04	-0.57586694
25	0xbf916a06	-1.1360481
26	0x3d8537f3	0.06504812
27	0xbe0fd03d	-0.1404428
28	0xbe0e70c3	-0.13910203
29	0x3dc9a21e	0.098453745
30	0x3d63534f	0.05549937
31	0xbe46bf17	-0.19408832
32	0xbe9d507c	-0.30725467
33	0xbf72a276	-0.94779146
34	0xbc4e2908	-0.012583025
35	0xbda3d3c9	-0.07999379
36	0x3d784907	0.06061652
37	0x3dbc514b	0.09195193
38	0xbd7e5d3d	-0.062100638
39	0xbe020f7e	-0.12701222
40	0xbe4ba49f	-0.19887017
41	0xbf2a4699	-0.66513973
42	0xbcb5f888	-0.022213235
43	0x3fb2bf70	1.3964672
44	0x3dd39895	0.10331837
45	0x3e9f80a8	0.31152844
46	0xbd636451	-0.05551559
47	0x3faeca94	1.3655572
48	0x3ee4b790	0.44671297
49	0xbdee024d	-0.116215326
50	0xbcf5b214	-0.02999214
51	0x3df6cef5	0.12051193
52	0xbe1ba5b4	-0.1519993
53	0x3f80cd87	1.0062722
54	0xbddad470	-0.106850505
55	0x3d7776dc	0.060416088
56	0x3ecc5e01	0.3991547
57	0xbebb4953	-0.3657938
58	0xbd0aa6ff	-0.033850666
59	0xbdada7e8	-0.08479291
60	0x3cdda037	0.027053935
61	0xbf9fa776	-1.247298
62	0xbd2c18f3	-0.04201598
63	0xbdbd8690	-0.092541814
64	0x3f6719c2	0.9027368
65	0xbf011e53	-0.50436896
66	0x3c7891b7	0.01517146
67	0x3e71728e	0.23578855
68	0xbe9a34a8	-0.301183
69	0xbfa6cc73	-1.3031143
70	0x3d37052a	0.04468266
71	0x3e3925b6	0.18080792
72	0xbe4ab8e8	-0.19797099
73	0xbedf80b3	-0.43652877
74	0x3ca1c376	0.019746523
75	0x3ccad772	0.024760935
76	0x3f7c4616	0.9854444
77	0x3f59837c	0.84966254
78	0xbd056aeb	-0.032572668
79	0x3c40515b	0.011738147
80	0x3d2fb8a6	0.042900704
81	0xbe88a9c5	-0.26692024
82	0x3ae4384e	0.00174118
83	0xbc5adb89	-0.013358005
84	0x3cd46ba1	0.025930228
85	0x3e603a9b	0.21897356
86	0xbd27302d	-0.04081743
87	0xbd8c86b8	-0.06861633
88	0x3eb3ea5b	0.35139737
89	0xbe683a9d	-0.22678609
90	0xbd37ed3d	-0.044903982
91	0xbe6b226e	-0.22962353
92	0xc00317c4	-2.0483255
93	0xbdff6404	-0.12470248
94	0x3bc665a4	0.006054597
95	0xbe325c0a	-0.17417923
96	0x3e2e1786	0.17001161
97	0x3d32e50f	0.04367548
98	0x3d5e3295	0.054247458
99	0x3e074edd	0.13213678
100	0x3f1e9a66	0.61954343
101	0x3d465a53	0.048425984
102	0xbc3fdf28	-0.011710919
103	0x3e00f37b	0.1259288
104	0x3dc67aae	0.09691368
105	0x3e8942db	0.2680882
106	0x3ace78c9	0.001575255
107	0x3ebb9407	0.36636373
108	0x3f6eec99	0.9332977
109	0x3ef54748	0.47905946
110	0x3caf9923	0.021435326
111	0x3ec8b615	0.39201418
112	0x3e7c24c9	0.24623407
113	0x3e9eeccc	0.31040037
114	0x3e39ba0e	0.1813738
115	0xbe72d259	-0.23713054
116	0x3f52ec35	0.82391673
117	0x3f9ad289	1.20955
118	0x3e477292	0.19477299
119	0xbe787f69	-0.24267353
120	0xbd29f7e5	-0.041496176
121	0xbea123ac	-0.31472528
122	0x3c019671	0.007909403
123	0x3d0c0f5c	0.034194335
124	0x3c9398df	0.01801723
125	0xbfc91fa3	-1.571278
126	0xbc3b8901	-0.0114462385
127	0xbc3b5fcc	-0.011436414
128	0xbd83af11	-0.06429876
129	0xbd953f2b	-0.07287439
130	0x3d19ce7c	0.037550434
131	0xbd2f1e2c	-0.042753384
132	0x3c9abcab	0.018888792
133	0xbf57a4e8	-0.84236
134	0xbd1c007a	-0.038086392
135	0x3d525bd2	0.051357098
136	0xba82a8d4	-0.0009968528
137	0x3eeeacce	0.46616215
138	0x3c432337	0.011910251
139	0xbd30d3a4	-0.043170586
140	0xbec1c02a	-0.37841922
141	0x40109fe7	2.2597597
142	0xbd1bc87e	-0.038033
143	0xbd4315be	-0.047628157
144	0xbd45a131	-0.048249427
145	0x3f0a7214	0.5408032
146	0xbcf474eb	-0.029840907
147	0x3e3ce8cd	0.18448181
148	0x3ea2c22b	0.31788763
149	0xbed3d1d9	-0.4137104
150	0xbd0a1775	-0.033713777
151	0x3dfc771e	0.12327407
152	0xbd98ea0f	-0.07466518
153	0x3f16c830	0.5889921
154	0xbddcb6a9	-0.10777027
155	0xbeed10cc	-0.46301877
156	0x3e2c7000	0.168396
157	0xbd522197	-0.051301565
158	0xbde3d87d	-0.11125276
159	0xbef0a05f	-0.46997353
160	0x3e123d42	0.1428118
161	0x3eab4faf	0.3345923
162	0x3b86a6a4	0.0041092206
163	0xbf9cf151	-1.2261144
164	0x3e949f04	0.2902757
165	0xbdfe5d68	-0.124201596
166	0xbd1fd55d	-0.03902184
167	0xbf9d5ddd	-1.229427
168	0xbebc148c	-0.36734426
169	0xbf5cf3cc	-0.86309505
170	0xbe0f6dbb	-0.14006703
171	0xbeb2d552	-0.34928375
172	0xbdc81216	-0.097690746
173	0x3e35322c	0.1769492
174	0xbdfbaa35	-0.12288324
175	0xbea8156a	-0.32828838
176	0xbe80ba26	-0.2514202
177	0xbf92dc97	-1.1473569
178	0xbd9a8d5b	-0.07546493
179	0xbe833bdc	-0.25631607
180	0x3cbf7bc9	0.023374455
181	0xbe84f113	-0.25965175
182	0xbd3855a9	-0.045003567
183	0xbe859b52	-0.26095062
184	0xbf08c1bb	-0.5342061
185	0xbff594cb	-1.9186033
186	0xbdd0c042	-0.1019292
187	0xbe333f9a	-0.17504731
188	0xbc14222e	-0.009041352
189	0xbef9d8e1	-0.48798278
190	0xbd691eab	-0.056914013
191	0xbdef5688	-0.116864264
192	0xbf0b6f5e	-0.5446681
193	0xbe55433e	-0.20826432
194	0x3e4245ee	0.18971989
195	0x3ea44473	0.32083473
196	0x3dff1a65	0.12456206
197	0x3f3d05e4	0.73837113
198	0x3e786b18	0.24259603
199	0x3ec2a243	0.3801442
200	0xbf00c508	-0.50300646
201	0x3bb26bea	0.0054449933
202	0x3e384f3b	0.17998974
203	0x3eb3ab0b	0.35091433
204	0x3ca999cb	0.020703217
205	0x3f3568bf	0.70862955
206	0x3e06d085	0.13165481
207	0x3e9e2a21	0.30891517
208	0xbea64ada	-0.32478982
209	0x3e06421c	0.13111156
210	0x3e7fe11d	0.24988218
211	0xbc3ae9a0	-0.01140824
212	0x3e1b1a17	0.15146671
213	0xbe3fe1c2	-0.18738464
214	0x3e5e6a3e	0.21720216
215	0xbaaa6e67	-0.0013002873
216	0xbf0ae934	-0.5426209
217	0x3dcf2480	0.10114384
218	0x3d3b9eac	0.04580562
219	0x3deee0c1	0.11663962
220	0xbe615e64	-0.22008663
221	0xbe1a5577	-0.15071665
222	0x3b1ed9d0	0.0024238713
223	0x3de0d423	0.10977962
224	0xbf0de5fb	-0.5542905
225	0x3e1a05e9	0.15041317
226	0x3e1a71b0	0.15082431
227	0x3d01c3a1	0.031680707
228	0x3cda7e6e	0.026671614
229	0xbf00dee8	-0.5034013
230	0x3e06ce35	0.13164599
231	0xbbc47b41	-0.0059961383
232	0xbf57f623	-0.8435995
233	0x3e2e136a	0.16999593
234	0x3dc7d087	0.0975657
235	0xbeac8b72	-0.33700138
236	0x3f06d226	0.5266441
237	0xbfa81b61	-1.3133355
238	0x3e1993ca	0.14997783
239	0xbe97cf74	-0.29650462
240	0x3d507f93	0.050902914
241	0x3e8ad3bf	0.27114674
242	0x3ccc0ab6	0.024907451
243	0xbdbb2e35	-0.09139673
244	0x3f222e85	0.63352233
245	0x3dd46270	0.10370338
246	0xbca961ac	-0.020676456
247	0xbda71415	-0.08158127
248	0x3e50868c	0.20363826
249	0xbd29a572	-0.041417547
250	0xbca34900	-0.01993227
251	0xbed1c025	-0.40966907
252	0x3ec5797e	0.38569254
253	0x3f3cab4c	0.7369888
254	0xbd706f8c	-0.05870013
255	0xbee48769	-0.4463456

fc1.bias f4 [400]
0	0x3e359309	0.1773187
1	0x3d1e8d71	0.038709108
2	0xbd1f2210	-0.038850844
3	0x3e1f7e81	0.15575601
4	0x3c0ca309	0.0085837925
5	0xbc89c23e	-0.016816255
6	0x3bf6b43e	0.0075288108
7	0xbe012af2	-0.12614039
8	0xbd7615da	-0.060079433
9	0xbe3c9a01	-0.18418123
10	0xbc938d6d	-0.018011773
11	0xbe4bb962	-0.19894937
12	0x3cfe2d6c	0.031027518
13	0x38cf32b0	9.8799705e-05
14	0x3d939cab	0.072076164
15	0xbe02179b	-0.12704317
16	0xbb0180d9	-0.0019760637
17	0xbd6a4d0c	-0.057202384
18	0xbdfa351b	-0.1221716
19	0x3e2313b7	0.1592549
20	0xbe4e2931	-0.20132901
21	0x3e13ba30	0.14426494
22	0xbd41fb5a	-0.04735885
23	0xbde60886	-0.112320945
24	0xbe4ad1f8	-0.19806659
25	0xbe4703c0	-0.19435024
26	0xbd8edd45	-0.069757976
27	0x3e06c59c	0.1316132
28	0x3d1f44d1	0.038883988
29	0xbe18aea4	-0.1491037
30	0x3e149440	0.14509678
31	0x3e2b5546	0.16731748
32	0x3dadb69f	0.08482098
33	0x3e4c9431	0.19978406
34	0x3e13e6be	0.1444349
35	0x3cee4f6e	0.02909061
36	0x3e1047ff	0.14089964
37	0xbddb1afc	-0.10698506
38	0xbcd3a581	-0.025835754
39	0xbddab000	-0.106781006
40	0xbd149e32	-0.03628368
41	0xbe24d0b0	-0.16095233
42	0x3e0e1f9b	0.13879244
43	0xbda4f303	-0.08054163
44	0x3d846b69	0.06465799
45	0x3e3fc77d	0.18728442
46	0x3d8d7d8f	0.06908714
47	0x3c2d0708	0.010560758
48	0x3e4a1750	0.19735456
49	0xbe4f1de4	-0.20226246
50	0x3e419463	0.18904261
51	0xbe35b16e	-0.17743465
52	0x3e575998	0.21030271
53	0x3caeb0c5	0.021324525
54	0xbdffb7e1	-0.12486244
55	0xbd8e527b	-0.06949326
56	0xbdd68a75	-0.10475627
57	0x3dfa6e2b	0.12228044
58	0x3e339a53	0.17539339
59	0x3e0121ec	0.12610596
60	0x3e14ad9e	0.14519355
61	0x3e4a5211	0.19757868
62	0xbe37dc6b	-0.17955177
63	0x3dafc288	0.08582026
64	0x3c887ab9	0.016660081
65	0x3dfc2974	0.12312594
66	0x3d6bf260	0.057604194
67	0x3be4ec3b	0.0069861687
68	0x3e0bf17a	0.13666335
69	0xbda912c4	-0.082555324
70	0xbe1f83bf	-0.15577601
71	0xbe15d0bf	-0.14630412
72	0x3e15d6ab	0.1463267
73	0x3b3817e6	0.0028090416
74	0xbe2a01d8	-0.16602266
75	0x3d8e206c	0.06939778
76	0xbbd8ca81	-0.006615937
77	0xbdf7fcdb	-0.12108775
78	0x3e37129d	0.17878194
79	0x3df20dd7	0.11819046
80	0x3e30fceb	0.1728398
81	0xbd0828e0	-0.033242106
82	0xbe008701	-0.125515
83	0xbe30d190	-0.17267442
84	0x3cc7e07d	0.024399037
85	0xbe127d58	-0.14305627
86	0x3df9496c	0.12172207
87	0xbe3cc524	-0.18434578
88	0xbe14ba66	-0.1452423
89	0x3cf2ddc3	0.02964676
90	0x3d4cb413	0.04997642
91	0xbcdd5a00	-0.027020454
92	0xbd2d74fc	-0.042347893
93	0xbdd7d3d2	-0.105384484
94	0xbd715f5c	-0.058928832
95	0x3cde3333	0.027124023
96	0xbe3b9235	-0.18317492
97	0xbd0fc777	-0.035102334
98	0xbd04a8da	-0.032387592
99	0x3b92b3e4	0.004477011
100	0x3e1b5a34	0.15171129
101	0xbe2ee9cc	-0.17081374
102	0x3d901ffe	0.07037352
103	0x3d9b3472	0.075783625
104	0x3d681690	0.056662142
105	0xbd6b0823	-0.057380807
106	0x3df1dd38	0.11809772
107	0xbe13e611	-0.14443232
108	0xbda84664	-0.08216551
109	0xbc82850f	-0.015932588
110	0xbcf85b7e	-0.030317064
111	0xbe4e7991	-0.20163561
112	0x3de05157	0.10953014
113	0x3dfd6c0f	0.12374126
114	0xbe3a4a23	-0.18192343
115	0x39cdd217	0.00039257176
116	0xbe4060c6	-0.18786916
117	0xbd10d287	-0.035357025
118	0x3c83cdf7	0.016089423
119	0x3e366258	0.17810953
120	0x3e10eb39	0.1415223
121	0x3dd783c3	0.105231784
122	0x3cdd7d29	0.02703722
123	0xbe40dfde	-0.18835399
124	0xbd86f249	-0.06589181
125	0x3e3b8659	0.18312968
126	0x3c2ecf0d	0.010669482
127	0xbd3c6aff	-0.046000477
128	0xbd904565	-0.07044486
129	0x3dcace04	0.099025756
130	0x3e037fb8	0.1284169
131	0xbc88277d	-0.016620392
132	0x3d6dabc1	0.058025125
133	0x3e194abb	0.14969914
134	0x3e0cf77b	0.13766281
135	0x3dd93427	0.106056504
136	0x3e0e313d	0.1388597
137	0x3dcdf6f2	0.10056867
138	0x3d63e708	0.05564025
139	0xbe4db0f7	-0.20087038
140	0xbd66a9f8	-0.05631444
141	0xbd787835	-0.060661513
142	0x3d3ada50	0.045618355
143	0xbd5640cd	-0.052307893
144	0xbe402a09	-0.18766035
145	0x3e2ee590	0.17079759
146	0xbdb52f4c	-0.08846912
147	0xbe477c01	-0.19480897
148	0xbdace554	-0.08442178
149	0x3d2f64f3	0.042820882
150	0xbd8dd848	-0.06926018
151	0xbe512402	-0.20423892
152	0x3d8c24d7	0.06842964
153	0x3d991737	0.07475131
154	0x3e429464	0.19001919
155	0xbe4e6167	-0.20154344
156	0xbd1e6a14	-0.038675383
157	0xbd9dc749	-0.07704026
158	0xbd93084d	-0.071793176
159	0x3b5194fc	0.003197967
160	0x3e41e599	0.18935241
161	0xbcad92c9	-0.021188157
162	0x3e33154c	0.17488593
163	0x3ce7ec8a	0.028311033
164	0xbdda1e2a	-0.106502846
165	0xbca16e31	-0.019705864
166	0x3dd726e7	0.10505467
167	0x3df74d8c	0.12075338
168	0xbd8a0234	-0.067387015
169	0xbcc94a7d	-0.024571652
170	0xbe2ec636	-0.17067799
171	0xbe051be0	-0.12998915
172	0xbd5cf034	-0.053940013
173	0x3df909a1	0.1216004
174	0x3c5bbed1	0.013412193
175	0x3ddcad22	0.1077521
176	0xbe2e8c86	-0.17045793
177	0x3d7fcc8b	0.062450927
178	0xbe28a501	-0.16469194
179	0xbd758c51	-0.05994827
180	0x3e2b01db	0.16699927
181	0x3c0a237f	0.0084313145
182	0xbe1bd468	-0.15217745
183	0xbe4e6822	-0.20156911
184	0xbd77ba3d	-0.060480345
185	0xbda47bdd	-0.080314375
186	0xbe42fa0d	-0.190407
187	0x3de1d745	0.110273875
188	0x3b8561a7	0.004070479
189	0xbd59b373	-0.05314965
190	0x3e217245	0.15766247
191	0xbe4aeabf	-0.19816111
192	0x3d5f9a62	0.05459059
193	0x3e1ae3d6	0.15125975
194	0x3d329d5b	0.043607097
195	0x3ddfd7cc	0.10929832
196	0xbd946d64	-0.07247427
197	0xbe448aaa	-0.19193521
198	0x3e434681	0.19069864
199	0xbe4f614b	-0.20251958
200	0xbda435d1	-0.08018077
201	0x3e3d6917	0.1849712
202	0xbdc82ca4	-0.097741395
203	0xbd21f199	-0.039537046
204	0xbdd377bc	-0.10325572
205	0x3d29247c	0.04129456
206	0xbd7596e4	-0.059958354
207	0x3d9bf5f9	0.07615275
208	0x3e4c9cea	0.19981733
209	0xbe22f7d5	-0.15914853
210	0x3e08b4f1	0.13350274
211	0xbd500f48	-0.050795823
212	0xbe50a24c	-0.20374411
213	0x3db5c3da	0.08875246
214	0xbe0b6d30	-0.1361587
215	0x3df68d27	0.120386414
216	0xbd111b55	-0.035426456
217	0xbdfc8c82	-0.12331487
218	0xbe3673f8	-0.17817676
219	0x3d366f33	0.04453964
220	0xbe48e438	-0.19618309
221	0x3de93f4b	0.11389025
222	0x3d9fabec	0.07796463
223	0xbe32ee9e	-0.17473838
224	0x3ddace2c	0.106838554
225	0xbe25cddd	-0.16191812
226	0x3ca9ba0d	0.020718599
227	0xbd6e5fc8	-0.058196813
228	0x3e06a063	0.1314712
229	0xbe30cc97	-0.17265545
230	0xbd8390fc	-0.06424138
231	0xbd93af73	-0.07211199
232	0xbc9c55c2	-0.019083861
233	0x3c9a5b6a	0.018842418
234	0xbe029a93	-0.12754278
235	0x3cd157ad	0.025554502
236	0x3bf134bd	0.007361023
237	0xbdf5154c	-0.11966953
238	0x3d4589d2	0.04822714
239	0x3e164ce0	0.14677763
240	0x3dd7d5b4	0.105388075
241	0x3d867049	0.065643854
242	0xbdb69b2c	-0.089163154
243	0xbe1fb55f	-0.15596531
244	0x3dfa32ae	0.12216698
245	0x3d170772	0.036872335
246	0x3c823e3d	0.015898818
247	0x3dd451d3	0.10367169
248	0xbdc093be	-0.094031796
249	0xbe552f30	-0.20818782
250	0xbe0d005d	-0.1376967
251	0xbe4a855f	-0.1977744
252	0x3e010613	0.12599973
253	0x3dfe2831	0.1241001
254	0xbdbf49fe	-0.09340285
255	0xbd3ac1a1	-0.045594815

bn1.weight f4 [400]
0	0x3f0a7079	0.5407787
1	0x3e80261b	0.25029072
2	0x3e9a571a	0.30144578
3	0x3eef0fd3	0.4669176
4	0x3ed68a45	0.41902366
5	0x3f3bf0fc	0.7341459
6	0x3e1f773c	0.15572828
7	0x3e86d650	0.26335382
8	0x3e782b25	0.24235208
9	0x3e3fc2aa	0.18726602
10	0x3ec0f4cd	0.37686768
11	0x3e99b946	0.30024165
12	0x3e71dd1e	0.23619506
13	0x3ec5a77e	0.3860435
14	0x3e7fbd03	0.24974446
15	0x3eb360e5	0.35034862
16	0x3e895a2c	0.26826608
17	0x3ed479d3	0.41499195
18	0x3e94a243	0.29030046
19	0x3efe4789	0.49663952
20	0x3e7c11b9	0.24616136
21	0x3eaa082b	0.33209357
22	0x3efe10b6	0.49622124
23	0x3e86ac2c	0.26303232
24	0x3e911cf9	0.28342417
25	0x3ec57f4c	0.38573682
26	0x3ed9efb1	0.42565683
27	0x3e967318	0.29384685
28	0x3f0f9b2b	0.5609614
29	0x3d979403	0.07401278
30	0x3f3b7fe7	0.7324204
31	0x3e6d71d4	0.23187953
32	0x3e025f9a	0.12731782
33	0x3e932adc	0.28743637
34	0x3e64ac59	0.2233137
35	0x3e9609b4	0.29304278
36	0x3e964fa2	0.2935763
37	0x3edc94ab	0.43082175
38	0x3f447b66	0.7675079
39	0x3e6bfb9a	0.23045197
40	0x3f0e1353	0.55498236
41	0x3e8a1cbb	0.26975045
42	0x3e6f9b11	0.23398997
43	0x3ea2c33f	0.31789586
44	0x3e816ae1	0.25276855
45	0x3e44c7c3	0.19216828
46	0x3ea602a2	0.32423884
47	0x3e9877f3	0.29779014
48	0x3f014543	0.5049631
49	0x3e2a5f9e	0.16638038
50	0x3e24a88f	0.16079925
51	0x3e96c45e	0.2944669
52	0x3f08c1e5	0.5342086
53	0x3f085d2a	0.5326716
54	0x3e96ed27	0.29477808
55	0x3e97861d	0.29594508
56	0x3e5aaed7	0.21355759
57	0x3ed2df7c	0.4118613
58	0x3e4b6bc6	0.19865331
59	0x3ea79ff0	0.3273921
60	0x3efcfa44	0.49409688
61	0x3e8604f9	0.2617567
62	0x3e9fa71c	0.31182182
63	0xbb4238d4	-0.0029635923
64	0x3f069ac6	0.52579916
65	0x3e6f50fa	0.23370734
66	0x3b6a09da	0.0035711438
67	0x3f17078c	0.5899589
68	0x3d7d69f6	0.06186863
69	0x3c1b37ca	0.00947375
70	0x3e88b311	0.26699117
71	0x3cc96fc7	0.024589432
72	0x3e71966a	0.23592535
73	0x3f3344ab	0.70026654
74	0x3ec217df	0.37908837
75	0x3eb5aaab	0.35481772
76	0x3d106d74	0.035260633
77	0x3ce3a466	0.027788352
78	0x3e5f3c47	0.21800338
79	0x3eeba18e	0.46021694
80	0x3d0e56ee	0.03475087
81	0x3c901e2c	0.017592512
82	0x3ea43f84	0.3207971
83	0x3e8d0a63	0.27546987
84	0x3e611509	0.2198068
85	0x3d1f35a0	0.0388695
86	0x3e78d7ba	0.24301043
87	0x3ebc850e	0.36820263
88	0x3ef9e41d	0.4880685
89	0x3bfe3b33	0.007758522
90	0x3e4c2c82	0.19938853
91	0x3e3afde1	0.1826091
92	0x3f1416a4	0.57847047
93	0x3f0493b3	0.5178787
94	0x3e3bd69a	0.18343583
95	0x3e68fd0f	0.22752784
96	0x3e5e48b9	0.21707429
97	0x3ef3b2a0	0.47597218
98	0x3e581b79	0.2110423
99	0x3e866863	0.26251516
100	0x3d0a73c5	0.033801813
101	0x3e3bfe6e	0.18358776
102	0x3e5954d7	0.2122377
103	0x3e55721b	0.20844309
104	0x3a5216e9	0.0008014278
105	0x3f12eea4	0.57395387
106	0x3ecde67d	0.4021491
107	0x3e71196a	0.23544851
108	0x3e8dadb9	0.27671602
109	0x3f98b720	1.1930885
110	0x3eda60c3	0.42651948
111	0x3eaa2525	0.33231464
112	0x3e18523b	0.14875118
113	0x3eba5698	0.3639419
114	0x3eabaf96	0.335324
115	0x3ae3d4bb	0.0017382124
116	0x3eb7ae70	0.35875273
117	0x3ec3cf4a	0.38244087
118	0x3e93ba7b	0.2885321
119	0x3edd0d49	0.43174198
120	0x3e8c2dfa	0.27378827
121	0x3cd9f7b8	0.02660738
122	0x3f080f13	0.53148
123	0x3b200093	0.0024414405
124	0x3ddefc43	0.10887959
125	0x3e5e687c	0.21719545
126	0x3ec15995	0.37763658
127	0x3d7145df	0.058904525
128	0x3e287a4b	0.16452901
129	0x3e24d4ff	0.16096877
130	0x3e09e909	0.13467802
131	0x3e85030c	0.25978887
132	0x3ef37bd2	0.47555405
133	0x3e5ae80e	0.21377584
134	0x3f3e9364	0.7444365
135	0x3ed389b9	0.41316012
136	0x3ee52f0a	0.4476245
137	0x3f7758f5	0.9662011
138	0x3e965fe9	0.2937005
139	0x3cb8db63	0.02256555
140	0x3ed50241	0.41603282
141	0x3efe066f	0.49614283
142	0x3d8dc906	0.06923108
143	0x3f2c7448	0.6736493
144	0x3ea13d33	0.31492004
145	0x3ec97c6a	0.39352733
146	0x3bb15ff1	0.0054130484
147	0x3f044693	0.5167019
148	0x3e85dcb6	0.26144952
149	0x3e69c223	0.22827964
150	0x3e385394	0.18000633
151	0x3ec1258d	0.3772396
152	0x3ea3404b	0.3188499
153	0x3eec51a9	0.46156052
154	0x3b0661e7	0.0020505132
155	0x3e28cd32	0.16484526
156	0x3d33a422	0.0438577
157	0x3ecb6e77	0.39732715
158	0x3ed6bb55	0.41939798
159	0x3ed5dc07	0.4176943
160	0x3ecf18d8	0.40448642
161	0x3e758755	0.23977406
162	0x3e74a9a9	0.23892845
163	0x3e617465	0.22017057
164	0x3f0a998c	0.54140544
165	0x3ef5e0cf	0.48023078
166	0x3e1c2d98	0.15251768
167	0x3e65957b	0.22420304
168	0x3eaaa221	0.3332682
169	0x3f0da604	0.55331445
170	0xbb828143	-0.0039826944
171	0x3db491d0	0.08816874
172	0x3f0cc626	0.5498985
173	0x3e1cd8e1	0.15317108
174	0x3e1f705a	0.15570202
175	0x3f109106	0.5647129
176	0x3ed5c6af	0.41753146
177	0x3f69496c	0.9112766
178	0x3ebe8548	0.3721106
179	0x3e1d936f	0.15388273
180	0x3ea12180	0.3147087
181	0x3eb29b4e	0.34884113
182	0x3e974498	0.2954452
183	0x3e756632	0.23964766
184	0x3eb5a508	0.3547747
185	0x3ee03550	0.43790674
186	0x3eb5e4da	0.35526162
187	0x3f9a40c3	1.2051014
188	0x3e403298	0.187693
189	0x3ef59a3f	0.47969243
190	0x3e06dc96	0.13170084
191	0x3f104950	0.56361866
192	0x3f859820	1.043705
193	0x3e79f223	0.24408774
194	0x3e4e692a	0.20157304
195	0x3e6ec479	0.23317136
196	0x3e429af0	0.19004416
197	0x3ec56148	0.38550782
198	0x3e45e814	0.19326812
199	0x3e6032d0	0.21894383
200	0x3ebbc09d	0.3667039
201	0x3ead2d4b	0.33823618
202	0x3e42a4bc	0.19008154
203	0x3e95c121	0.29248908
204	0x3e70365f	0.23458241
205	0x3ea35988	0.31904244
206	0x3f6b79ea	0.919829
207	0x3e2dd4f3	0.16975765
208	0x3ea83acf	0.32857367
209	0x3ee61c55	0.4494349
210	0x3e54132d	0.2071044
211	0x3ee2a2b3	0.44264755
212	0x3ec628b4	0.3870293
213	0x3e32248a	0.17396751
214	0x3e29f167	0.16595994
215	0x3eae1af1	0.3400493
216	0x3e8fa753	0.28057346
217	0x3e28300b	0.16424577
218	0x3e6bdc3d	0.23033233
219	0x3eaa75c9	0.33292988
220	0x3ee65098	0.44983363
221	0x3e43a2a4	0.19105011
222	0x3e2b30fd	0.16717906
223	0x3ee27ef4	0.44237483
224	0x3e7a9523	0.24470954
225	0x3f0509a6	0.5196785
226	0x3deb29bd	0.1148257
227	0x3f03dd96	0.5150999
228	0x3f0ae906	0.54261816
229	0x3e5b9a02	0.21445468
230	0xbaafaf30	-0.001340365
231	0x3eca3462	0.3949309
232	0x3e8a5730	0.27019644
233	0x3ec719b4	0.38886797
234	0x3ea62c96	0.3245589
235	0x3e700b7f	0.23441885
236	0x3e6c9c64	0.23106533
237	0x3ef265c3	0.47343263
238	0x3ef43d97	0.4770324
239	0x3ebebb18	0.37252116
240	0x3e7a6cf3	0.24455623
241	0x3cf0aacd	0.02937832
242	0x3e9ba49f	0.30399033
243	0x3f24fcac	0.64448047
244	0x3ea1f9bf	0.31635854
245	0x3edb3b90	0.4281888
246	0x3e58eab3	0.2118328
247	0x3e36b32f	0.1784179
248	0x3e7c6e35	0.24651416
249	0x3f0ec708	0.5577245
250	0x3eaf2e7c	0.34215152
251	0x3f13bbc9	0.5770841
252	0x3f1a16eb	0.6019122
253	0xba77e2bc	-0.00094560883
254	0x3eaad251	0.33363584
255	0x3e5794b8	0.21052825

bn1.bias f4 [400]
0	0xbf505623	-0.81381434
1	0xbed78b48	-0.4209845
2	0xbeb84106	-0.3598711
3	0xbeef4341	-0.46730998
4	0xbf15ac67	-0.5846619
5	0xbe976df6	-0.2957608
6	0xbea994a7	-0.33121225
7	0xbf350f4b	-0.7072646
8	0xbeb50245	-0.35353294
9	0xbe90e9a4	-0.28303254
10	0xbf0f1b47	-0.55900997
11	0xbe9b63a5	-0.3034946
12	0xbf1cf6b5	-0.61313945
13	0xbf10baed	-0.56535226
14	0xbea0e2f2	-0.31423146
15	0xbf1c44be	-0.6104239
16	0xbee45ead	-0.44603482
17	0xbf42e59a	-0.76131594
18	0xbe24b5c9	-0.1608497
19	0xbf500d75	-0.81270534
20	0xbf051c32	-0.5199615
21	0xbeb2bb70	-0.34908628
22	0xbf525ab3	-0.82169646
23	0xbecbbac9	-0.39790943
24	0xbedf1746	-0.43572444
25	0xbf014366	-0.50493467
26	0xbe93053e	-0.28714937
27	0xbf014557	-0.5049643
28	0xbe4e4192	-0.201422
29	0xbeae723f	-0.34071538
30	0xbf09659e	-0.5367068
31	0xbe77493e	-0.24149033
32	0xbf095117	-0.5363936
33	0xbeb21a98	-0.34785914
34	0x3eb7629d	0.35817423
35	0xbee047db	-0.4380482
36	0xbf194ec1	-0.59885794
37	0xbec61e1b	-0.38694844
38	0xbf12310c	-0.5710609
39	0xbe6da412	-0.23207119
40	0xbf05462e	-0.5206021
41	0xbed02749	-0.40654972
42	0xbeb0b462	-0.3451262
43	0xbee269a6	-0.44221228
44	0xbea5741a	-0.3231514
45	0xbf0ce74a	-0.5504042
46	0xbebaaca1	-0.3645983
47	0xbed87a54	-0.4228083
48	0xbf57540f	-0.8411264
49	0xbe986832	-0.29766995
50	0xbe81667e	-0.25273508
51	0xbe857127	-0.2606289
52	0xbe9c6cf6	-0.3055188
53	0xbe6b4d7a	-0.22978774
54	0xbf08973c	-0.53355765
55	0xbe99ee13	-0.3006445
56	0xbe83ea59	-0.2576473
57	0xbf2ea53c	-0.6822088
58	0xbedb6a99	-0.42854765
59	0xbea33c6f	-0.31882045
60	0xbf0d9214	-0.5530102
61	0xbe8613f1	-0.2618709
62	0xbea1291a	-0.3147667
63	0xbe05c8a2	-0.13064817
64	0xbec72e80	-0.38902664
65	0xbee9d6d3	-0.4567171
66	0xbc641d29	-0.013922968
67	0xbf238084	-0.63867974
68	0xbb8054fa	-0.00391638
69	0xbced4ecd	-0.02896824
70	0xbedb2283	-0.42799768
71	0xbe6a3039	-0.22869958
72	0xbef43141	-0.47693828
73	0xbef9a919	-0.48761824
74	0xbf2fc997	-0.68666977
75	0x3d2652f2	0.040606447
76	0xbe088f51	-0.13335921
77	0xbe35f0ab	-0.17767589
78	0xbe533760	-0.20626593
79	0xbf145cee	-0.579543
80	0xbe268fc2	-0.16265777
81	0xbda45a8f	-0.08025085
82	0xbf07c635	-0.53036815
83	0xbf0e524f	-0.5559434
84	0xbef518c2	-0.4787045
85	0xbe34169f	-0.17586754
86	0xbe81ab1e	-0.25325865
87	0xbec245ae	-0.37943786
88	0xbf039a1b	-0.5140702
89	0xbe0dc7cc	-0.13845748
90	0xbf098518	-0.5371871
91	0xbe7c85e5	-0.24660452
92	0x3dd18c15	0.10231797
93	0xbecbbf24	-0.39794266
94	0xbedaf8f6	-0.42768067
95	0xbe9c5f9e	-0.305417
96	0xbe9701f6	-0.29493684
97	0xbe9e3065	-0.30896297
98	0xbed00709	-0.40630367
99	0xbf300ebc	-0.6877248
100	0xbe1814e1	-0.14851715
101	0xbe8435a1	-0.25822166
102	0xbeef5966	-0.46747893
103	0xbecdc350	-0.40188074
104	0xbb9fc9ab	-0.0048763356
105	0xbf0dacfb	-0.5534207
106	0xbef4568c	-0.4772228
107	0xbe27b442	-0.16377357
108	0xbe5ae967	-0.21378098
109	0xbe89004b	-0.26758036
110	0xbeeb39ab	-0.45942435
111	0xbeea0f02	-0.45714575
112	0xbe915782	-0.28387076
113	0xbe9c28d9	-0.30499914
114	0xbe5a31e9	-0.21308102
115	0xbc1aaadf	-0.009440153
116	0x3f0bdaea	0.5463091
117	0xbe7d474e	-0.24734232
118	0xbec2c2dc	-0.3803929
119	0xbec84ff8	-0.3912351
120	0xbecb12cb	-0.39662775
121	0xbe1bf7db	-0.15231268
122	0xbec5022e	-0.38478225
123	0xbc0ce4a9	-0.008599439
124	0xbdadc5de	-0.08485006
125	0xbe7239cc	-0.2365486
126	0xbf09d0f4	-0.5383446
127	0xbe81cd22	-0.25351816
128	0xbeaffbc2	-0.34371763
129	0xbe853f40	-0.26024818
130	0xbd775746	-0.060385965
131	0xbf039b03	-0.51408404
132	0xbf420d33	-0.7580139
133	0xbef4259a	-0.47684938
134	0x3d43df30	0.04782027
135	0xbee9c901	-0.45661166
136	0xbf0de320	-0.5542469
137	0x3f5d4c54	0.8644459
138	0xbe8fcaf6	-0.28084534
139	0xbd9e6090	-0.077332616
140	0x3ecdb1bc	0.40174663
141	0xbf093da8	-0.53609705
142	0x3d98d397	0.074622326
143	0xbf16800b	-0.5878913
144	0xbe5fc45c	-0.21852249
145	0xbf0f120a	-0.558869
146	0xbd441c32	-0.04787845
147	0xbee05b0e	-0.4381947
148	0xbe57453d	-0.21022506
149	0xbef16046	-0.47143763
150	0xbec6df7f	-0.3884239
151	0xbf04bc78	-0.5185008
152	0xbe23032f	-0.15919183
153	0xbf295614	-0.6614697
154	0xbd43800b	-0.047729533
155	0xbe2499bc	-0.1607427
156	0xbe5cadbc	-0.2155065
157	0xbec1fe18	-0.3788917
158	0xbee1a242	-0.44069105
159	0xbed908df	-0.4238958
160	0xbe99ccca	-0.30039054
161	0xbe5e3d39	-0.21703042
162	0xbe315e48	-0.17321122
163	0xbe25d295	-0.16193612
164	0xbeeb2a1d	-0.45930567
165	0xbf0fb056	-0.5612844
166	0xbee32d6e	-0.44370598
167	0xbf0baeab	-0.545634
168	0xbefdac53	-0.49545535
169	0xbf51cccb	-0.81953114
170	0xbd880f66	-0.06643562
171	0xbea24145	-0.31690422
172	0xbedb418e	-0.42823452
173	0xbf078264	-0.52933335
174	0x3dd6071d	0.104505755
175	0xbf2d3e53	-0.67673224
176	0xbf00b9fd	-0.50283796
177	0x3f050e63	0.5197508
178	0xbea12520	-0.31473637
179	0xbec6869f	-0.38774583
180	0xbefb6c60	-0.4910612
181	0xbee036fa	-0.43791944
182	0xbf2109d0	-0.629056
183	0xbecfebec	-0.40609682
184	0xbe23b1f6	-0.15985855
185	0xbed2372a	-0.41057712
186	0xbe34ac92	-0.17643955
187	0xbdbf45f9	-0.09339518
188	0xbf05c2e0	-0.5225048
189	0x3e26a0ab	0.16272227
190	0xbf080ade	-0.5314158
191	0x3ec56b63	0.38558492
192	0x3e0f8f6f	0.1401956
193	0xbf063d22	-0.5243703
194	0xbe3d13fd	-0.18464656
195	0xbee8c375	-0.45461622
196	0xbea73938	-0.32660842
197	0xbe8afff4	-0.27148402
198	0xbea21b70	-0.31661558
199	0xbe03c47c	-0.12867922
200	0xbd5e12db	-0.0542172
201	0xbeb606c2	-0.3555203
202	0xbe9fcabf	-0.3120937
203	0xbec356a8	-0.3815205
204	0xbeda0fff	-0.4259033
205	0xbf09f82f	-0.53894323
206	0xbed1aa62	-0.40950304
207	0xbec1b249	-0.37831333
208	0xbeedcbec	-0.46444643
209	0xbede0c00	-0.4336853
210	0xbea3cfa2	-0.3199435
211	0xbf0a049d	-0.5391329
212	0xbefd51d8	-0.49476504
213	0xbe3ffdfc	-0.18749231
214	0xbe6c0619	-0.23049201
215	0xbf199529	-0.59993225
216	0xbebbb6f4	-0.3666302
217	0xbec6303d	-0.38708678
218	0xbe3899bf	-0.180274
219	0x3e5cf250	0.2157681
220	0xbe5a3fe6	-0.21313438
221	0xbd72e968	-0.059304625
222	0xbed82156	-0.42212933
223	0xbd61e2e9	-0.05514804
224	0xbed57813	-0.41693172
225	0xbefc0a6c	-0.492267
226	0xbed0cea0	-0.40782642
227	0xbf554c7e	-0.8331984
228	0xbeef9235	-0.46791235
229	0xbe3c79ee	-0.18405887
230	0xbc523cb2	-0.012831854
231	0xbe2cd62b	-0.16878574
232	0xbf00c915	-0.50306827
233	0xbea2ad05	-0.31772628
234	0xbeac0c86	-0.33603305
235	0xbeae7bd7	-0.34078857
236	0xbe141476	-0.1446093
237	0xbf0fccfc	-0.56172156
238	0xbf022860	-0.5084286
239	0xbe5f630b	-0.21815126
240	0xbec787c0	-0.38970757
241	0xbe2433ff	-0.1603546
242	0xbeafe9df	-0.34358117
243	0xbe49010d	-0.19629307
244	0xbedafa86	-0.4276926
245	0xbe05c95d	-0.13065095
246	0xbe748aec	-0.2388112
247	0xbe421952	-0.18954971
248	0xbe752dd3	-0.23943262
249	0xbf40a577	-0.7525248
250	0xbe15248a	-0.1456472
251	0xbedaf404	-0.42764294
252	0xbe03f6bc	-0.1288709
253	0xbd141792	-0.03615529
254	0xbf1820a6	-0.5942482
255	0xbe6ed1bf	-0.233222

bn1.running_mean f4 [400]
0	0x3ed5848d	0.4170269
1	0x414e659a	12.899805
2	0xc15abe2d	-13.67143
3	0x3fcf0d4e	1.6175935
4	0x3e7e264d	0.24819298
5	0x3d06634f	0.03280955
6	0xc093ce89	-4.618962
7	0x41406044	12.023502
8	0x41805f1f	16.046446
9	0x41367780	11.404175
10	0x3f6e0ddd	0.92989904
11	0x40f6ae5e	7.708785
12	0x4039c804	2.902833
13	0xc12a60e3	-10.648654
14	0x40f6f395	7.717234
15	0x3f107030	0.56421185
16	0x41129590	9.161514
17	0x3fd0ee6c	1.632276
18	0x41707693	15.028949
19	0xc00c0e2d	-2.1883652
20	0xc1260071	-10.375108
21	0x41389f43	11.538882
22	0xbf241423	-0.64093226
23	0xc0b2f1a5	-5.5919976
24	0x400264d9	2.0374053
25	0x40b177bd	5.5458665
26	0xc0e989aa	-7.2980547
27	0x402feb7d	2.748748
28	0x40ade132	5.4337397
29	0x403b9cc2	2.9314427
30	0x3cae40c5	0.021271119
31	0xc194d944	-18.606087
32	0xc119840d	-9.594739
33	0xc0ef9efd	-7.4881577
34	0x40df9979	6.9874845
35	0xc0dba684	-6.8640766
36	0x41967493	18.806921
37	0xbf25f3b1	-0.6482497
38	0xc0d025a8	-6.5045967
39	0x4189cdba	17.225452
40	0x409eb076	4.9590406
41	0x4193c313	18.470251
42	0x403479ba	2.8199296
43	0xc027177e	-2.6108088
44	0xbfa96ece	-1.323694
45	0xc11030b7	-9.011893
46	0xc0fb25f3	-7.8483825
47	0x40bed971	5.964043
48	0xbdc9d2ac	-0.098546356
49	0x411d9566	9.848974
50	0xc120f1f3	-10.05907
51	0x41419592	12.099016
52	0x3cf8a23b	0.030350795
53	0x41aa09e2	21.254826
54	0x411fc850	9.986404
55	0x40ab8174	5.3595524
56	0xc06d5fa3	-3.7089622
57	0x4142dbec	12.178692
58	0xc19ce44f	-19.611479
59	0x412ae80e	10.681654
60	0x40d430a9	6.63094
61	0x3fd58870	1.6682262
62	0xbe995e82	-0.29954916
63	0x407aef19	3.9208434
64	0xc0f508af	-7.65731
65	0x3f18f76e	0.5975255
66	0xbd473192	-0.04863126
67	0xc1693de5	-14.577611
68	0x4046b11f	3.1045606
69	0xbec096a2	-0.37614924
70	0x41111f81	9.070191
71	0xbfe23fa7	-1.7675675
72	0xbf1ea539	-0.6197086
73	0x41302bd4	11.0107
74	0xbee38bfb	-0.44442734
75	0x403735ca	2.862658
76	0xc0307fcc	-2.7578
77	0xbf9cf4ed	-1.2262245
78	0xc11a9da6	-9.663488
79	0x4061e20f	3.5294225
80	0x40855c4c	4.1675167
81	0x3fa97bc1	1.3240892
82	0x40b066f8	5.5125694
83	0x40bb61d8	5.855694
84	0x41388e77	11.534781
85	0xc06a095c	-3.6568213
86	0x41415b79	12.084832
87	0x414f7b87	12.967658
88	0x400ecc91	2.2312357
89	0x3fb38b88	1.4026957
90	0x4184847a	16.564686
91	0x415c93ea	13.786112
92	0xc0965adb	-4.6985908
93	0x3e7c7cfd	0.24657054
94	0x40ad6aa2	5.4192667
95	0x40e38a89	7.110661
96	0x402c9e1e	2.6971507
97	0xc0b6ae63	-5.7087874
98	0x405d3f66	3.4569945
99	0x40094335	2.144727
100	0xbfe4ead2	-1.7884161
101	0x41442dd1	12.261186
102	0xc19e813a	-19.813099
103	0xc0fab0e9	-7.8340955
104	0x3f0a613c	0.5405462
105	0x40680146	3.6250777
106	0x40472fc9	3.1122916
107	0x41314786	11.079962
108	0x411a2c8b	9.635875
109	0x3f915150	1.135294
110	0x416bd29c	14.738918
111	0xc1760456	-15.376059
112	0x41073278	8.449821
113	0x40e91434	7.283716
114	0xc118e8b6	-9.556814
115	0x3b498e6b	0.0030755054
116	0x40990154	4.781412
117	0x418dbd1d	17.71734
118	0x4100c894	8.048969
119	0xc12ffce0	-10.999237
120	0x413c418e	11.766005
121	0xc0b623d3	-5.691873
122	0x41792975	15.572621
123	0x3efaa166	0.48951262
124	0x4088f67f	4.28009
125	0xc181bd68	-16.217484
126	0x4105b5bd	8.35687
127	0xbed8e317	-0.42360756
128	0x40d74297	6.7268786
129	0x40cc629e	6.387038
130	0xc0930023	-4.5937667
131	0xc160c2ed	-14.047589
132	0xc0441638	-3.0638561
133	0x40f641f4	7.695551
134	0xc0425718	-3.0365658
135	0x411f1deb	9.944804
136	0xbff18d07	-1.8871163
137	0x3e15dd24	0.1463514
138	0x41ac3d97	21.530073
139	0xc0721ca6	-3.7829986
140	0xbf842fc6	-1.0327079
141	0xbfa8832a	-1.3165028
142	0xc1162b43	-9.385562
143	0x40f527d8	7.6611137
144	0x417af971	15.685899
145	0x3fac73da	1.3472855
146	0x401c00ba	2.4375443
147	0x4095d732	4.682519
148	0xc09cbfa1	-4.898392
149	0x3fea7d7b	1.8319544
150	0x413597b3	11.349536
151	0x410411ab	8.254313
152	0x40e7a0c2	7.2383738
153	0xc0990656	-4.7820234
154	0xbe2ec21a	-0.17066231
155	0xc14324d9	-12.196496
156	0xc026d876	-2.6069617
157	0x40bd84c8	5.9224586
158	0x41c97466	25.181835
159	0x4191e0d5	18.234781
160	0xbeb456e2	-0.35222536
161	0x41d73df1	26.905245
162	0x40b4261a	5.629651
163	0x3f2131d7	0.62966675
164	0x41cdb879	25.715075
165	0xc0a9801b	-5.296888
166	0xbfdeeb73	-1.7415603
167	0x40190ec1	2.3915255
168	0x401cdf39	2.4511244
169	0x3fcea78f	1.6144885
170	0xbf674097	-0.9033293
171	0x4025a7d5	2.5883687
172	0x40e98f80	7.298767
173	0xc1158026	-9.343786
174	0x409c7fdd	4.8906083
175	0x40f597ec	7.674795
176	0xc120a869	-10.041116
177	0x3d4863e5	0.04892339
178	0x40821654	4.0652256
179	0x41314f35	11.081838
180	0x40ea4534	7.3209476
181	0x3f8d3156	1.1030681
182	0xc0c1609f	-6.0430446
183	0x41991f3d	19.140253
184	0x3f2d1973	0.6761696
185	0x3f6da336	0.92827165
186	0x41996bd6	19.177654
187	0x3f7f1aa8	0.9965005
188	0xc0bf6b20	-5.981827
189	0xbeb018f4	-0.34394038
190	0xc045eb63	-3.0924919
191	0xbf5a982e	-0.8538846
192	0x3e88542a	0.26626712
193	0xc0aa025d	-5.3127885
194	0x3fa49a13	1.285952
195	0x411bc772	9.736193
196	0xc0bb31df	-5.849838
197	0x41137f37	9.218558
198	0xc0602c5d	-3.5027077
199	0x4042126a	3.032374
200	0x404cbdc9	3.1990836
201	0xc16217f3	-14.130847
202	0xc087fe60	-4.2498016
203	0x419ebebc	19.843132
204	0xbeb836ee	-0.35979408
205	0x41194972	9.580431
206	0x3f452bbc	0.7701986
207	0x41625dd0	14.147903
208	0xc16b1c36	-14.694387
209	0x41042cc0	8.260925
210	0xc0438ff2	-3.0556607
211	0x4125afee	10.355452
212	0xc0c60d11	-6.189095
213	0x41a44236	20.53233
214	0x40e1f61b	7.061292
215	0xc12a3184	-10.637089
216	0x41081dab	8.507243
217	0xbf78c305	-0.97172576
218	0x41194906	9.580328
219	0xbd0bded8	-0.034148067
220	0x40e4e7f1	7.153313
221	0x41cdd30a	25.728046
222	0x40f9cba1	7.806107
223	0x409a93c4	4.830538
224	0x40f93d94	7.788767
225	0x401c3c58	2.441183
226	0x40b91028	5.783222
227	0xbda8491e	-0.08217071
228	0xc12e3476	-10.887808
229	0x41ada43b	21.70519
230	0x3e88a6ba	0.26689702
231	0x3fb499b9	1.4109412
232	0x4142e3df	12.180633
233	0x41a48532	20.565037
234	0xc199df29	-19.233965
235	0xc10693f7	-8.411124
236	0x415df1bc	13.871517
237	0x40b9a067	5.8008304
238	0x40d17f45	6.546786
239	0xc0f1ec6f	-7.5601115
240	0x408d7532	4.420556
241	0x40c1308a	6.037175
242	0xc0ddd837	-6.9326434
243	0x3e8536e4	0.2601844
244	0x3f617748	0.88072634
245	0x410748da	8.455286
246	0x403a53b3	2.9113586
247	0xc18782a5	-16.938791
248	0x41993c2f	19.154387
249	0x40e46799	7.137646
250	0x40aae72a	5.3407183
251	0x4095c011	4.6796956
252	0x3deb4735	0.11488191
253	0xc084d63c	-4.1511517
254	0xc139ffa2	-11.62491
255	0x401876fd	2.3822625

bn1.running_var f4 [400]
0	0x412b8fcc	10.722607
1	0x41ca4f88	25.288834
2	0x42141ff3	37.0312
3	0x425892ad	54.143238
4	0x4371b9f3	241.72636
5	0x4136fb51	11.436357
6	0x4243e48c	48.97319
7	0x42ec08c4	118.01712
8	0x433f02ee	191.01144
9	0x42c36c20	97.71118
10	0x4384ea80	265.83203
11	0x4224d7bb	41.210674
12	0x429eacfd	79.33787
13	0x4147d35d	12.489102
14	0x433e8ec1	190.55763
15	0x421d6008	39.34378
16	0x43bbe3dd	375.78018
17	0x422a236b	42.534588
18	0x428419cd	66.05039
19	0x42d379cc	105.737885
20	0x430dbd0b	141.73845
21	0x439cd01c	313.62585
22	0x4371d7d7	241.84312
23	0x42b10689	88.512764
24	0x43598de3	217.55424
25	0x42847beb	66.24203
26	0x42ec127d	118.03611
27	0x432ca991	172.66237
28	0x4323e76f	163.90404
29	0x42b91acb	92.55233
30	0x412a8e57	10.659751
31	0x42f37fce	121.74962
32	0x42cda409	102.82038
33	0x4313f916	147.97299
34	0x41c58073	24.68772
35	0x4247423c	49.814682
36	0x43274bff	167.29686
37	0x421e29f4	39.54097
38	0x44483a7d	800.9139
39	0x432a3640	170.21191
40	0x41a8d8f4	21.105934
41	0x41d34a9a	26.411427
42	0x43bc27ca	376.31085
43	0x42d4dd4e	106.432236
44	0x4171b52e	15.106733
45	0x428d63ce	70.69493
46	0x428a7576	69.229416
47	0x42de9e96	111.30974
48	0x41cd93f3	25.69724
49	0x42923566	73.104294
50	0x42899bc5	68.80424
51	0x4335d73b	181.84074
52	0x41e8fcac	29.123375
53	0x4345a6c4	197.65143
54	0x433868e8	184.40979
55	0x42c949a5	100.64384
56	0x443138fc	708.8904
57	0x43080539	136.0204
58	0x4381373f	258.4316
59	0x42dbbe31	109.87147
60	0x4246b7fb	49.67967
61	0x42167b2b	37.62028
62	0x424ceeb9	51.233128
63	0x4260d500	56.208008
64	0x43ecebf3	473.84335
65	0x429fb1a1	79.84693
66	0x40293b3c	2.6442404
67	0x43008e88	128.55676
68	0x41e3d72f	28.48007
69	0x40c7813a	6.2345247
70	0x4376334d	246.2004
71	0x412d6d46	10.839178
72	0x428740ec	67.6268
73	0x4150d529	13.052041
74	0x434d1006	205.06259
75	0x428a937d	69.28806
76	0x431ae6ed	154.90205
77	0x410d9894	8.8497505
78	0x42fef8b8	127.48578
79	0x42f2c5fb	121.38668
80	0x425914b9	54.270237
81	0x40e76471	7.231011
82	0x431470c2	148.44046
83	0x431316fe	147.08981
84	0x42916580	72.69824
85	0x41b98c8f	23.193632
86	0x423db231	47.424015
87	0x4396717e	300.88666
88	0x41b2c2a9	22.345049
89	0x4164ed29	14.3079
90	0x42983744	76.10794
91	0x43107c91	144.48659
92	0x42ac9c43	86.3052
93	0x42a3d713	81.92007
94	0x42b84cec	92.15024
95	0x42343258	45.049164
96	0x42afc157	87.87762
97	0x4203ea06	32.97854
98	0x423f2abd	47.791737
99	0x437fddc4	255.86627
100	0x421490c0	37.141357
101	0x43017ded	129.4919
102	0x4311439a	145.26407
103	0x42d548b2	106.64198
104	0x3f3c60d1	0.7358523
105	0x42e53377	114.60052
106	0x4383f271	263.89407
107	0x437b0485	251.01765
108	0x428ae5f0	69.4491
109	0x42650d1b	57.2628
110	0x4237a6a8	45.91275
111	0x41931d97	18.389448
112	0x42919c50	72.8053
113	0x426df608	59.490265
114	0x42401f53	48.03059
115	0x401a7be3	2.4138114
116	0x412d6bf4	10.838856
117	0x42c5cfea	98.90608
118	0x4287c346	67.88139
119	0x421d7957	39.368496
120	0x42f79969	123.79963
121	0x4200c810	32.195374
122	0x43104f14	144.3089
123	0x40bf3e95	5.9763894
124	0x4251f95f	52.493526
125	0x41cf3444	25.90052
126	0x42fa5809	125.17194
127	0x4254d552	53.20832
128	0x436c5e71	236.36891
129	0x42ad8371	86.75672
130	0x435c89f6	220.53891
131	0x422e3220	43.54895
132	0x41c64d47	24.787733
133	0x4188d80e	17.105495
134	0x44989cbb	1220.8978
135	0x412149fb	10.080562
136	0x42ed32a5	118.598915
137	0x40b77b88	5.7338295
138	0x430fb891	143.72096
139	0x40f9061b	7.7819953
140	0x409057ea	4.5107317
141	0x427500ac	61.250656
142	0x42868bff	67.27343
143	0x419a0caf	19.256193
144	0x4316483b	150.28215
145	0x43b390c0	359.13086
146	0x41cb37c9	25.402239
147	0x42d9219d	108.56565
148	0x42ae2fdf	87.0935
149	0x429dbef1	78.87293
150	0x42faaeb9	125.341255
151	0x431cc0cb	156.7531
152	0x436d373d	237.21577
153	0x41a63e85	20.780527
154	0x4036c6cc	2.8558836
155	0x42e8e9ed	116.45689
156	0x41814155	16.1569
157	0x42abbd85	85.870155
158	0x4358fbc2	216.98343
159	0x42abf78c	85.98349
160	0x432ff258	175.94666
161	0x430293f0	130.57788
162	0x43add577	347.6677
163	0x432d5d2b	173.36394
164	0x433efc85	190.9864
165	0x420d4c13	35.32429
166	0x42a6011f	83.00219
167	0x44093fe0	548.99805
168	0x41fde217	31.735395
169	0x4258ce27	54.20132
170	0x40efc27e	7.4924917
171	0x43c9b2db	403.3973
172	0x41b804ad	23.002283
173	0x42b05aad	88.1771
174	0x41e37b08	28.435074
175	0x43a4823c	329.01746
176	0x430957dc	137.3432
177	0x40e32fdc	7.099592
178	0x42d01569	104.04182
179	0x425b7dd8	54.872894
180	0x42f9d623	124.918236
181	0x4327286c	167.1579
182	0x42075fb6	33.843468
183	0x42bf3d46	95.619675
184	0x4264f61c	57.24034
185	0x4260aa17	56.166103
186	0x436d7e9f	237.49461
187	0x41c48f4a	24.569965
188	0x434559a2	197.35013
189	0x40ef4c05	7.4780297
190	0x439dc028	315.50122
191	0x41b604cd	22.752344
192	0x413d99e5	11.850072
193	0x4373d268	243.8219
194	0x4303ded5	131.87044
195	0x43334c1c	179.2973
196	0x422f57f9	43.83591
197	0x422e5197	43.579678
198	0x432e9f78	174.62292
199	0x428210b2	65.03261
200	0x42cdb06d	102.84458
201	0x431d75cf	157.46019
202	0x42aed6b2	87.41933
203	0x43333956	179.22397
204	0x42024b81	32.573734
205	0x432189da	161.53848
206	0x4169f6c1	14.622743
207	0x42780a19	62.00986
208	0x426ef99f	59.74377
209	0x418d7618	17.682663
210	0x42339379	44.894016
211	0x4215c347	37.4407
212	0x423d53d8	47.33188
213	0x4251f5c2	52.489998
214	0x42ea0f61	117.03004
215	0x428f5c87	71.68072
216	0x42a41a16	82.05095
217	0x42876174	67.69034
218	0x4391d848	291.6897
219	0x44bb8b38	1500.3506
220	0x41c840b5	25.031595
221	0x4344b8c5	196.72176
222	0x42ca1874	101.04776
223	0x424362bb	48.846416
224	0x43056dce	133.42892
225	0x415e9069	13.910256
226	0x4318b253	152.69658
227	0x4372b322	242.69974
228	0x41c0234a	24.017231
229	0x42b848d0	92.14221
230	0x3fefb0d2	1.8725836
231	0x4429d8c4	679.38696
232	0x430bfce7	139.9879
233	0x423eb862	47.68006
234	0x42aed8c3	87.42336
235	0x419f0440	19.877075
236	0x433d7a00	189.47656
237	0x421ccfe6	39.203026
238	0x431d247c	157.14252
239	0x4287c8b4	67.892
240	0x4358966f	216.58763
241	0x438c57aa	280.68488
242	0x4205c258	33.43979
243	0x40d3d0fc	6.619261
244	0x42d53c20	106.61743
245	0x40be583b	5.9482703
246	0x426d2e74	59.295364
247	0x42d355ad	105.667336
248	0x43665bc9	230.35854
249	0x40e23350	7.0687637
250	0x421455d6	37.083824
251	0x4083c7aa	4.118123
252	0x4112f333	9.184375
253	0x427ebdb0	63.68524
254	0x4299b9ff	76.86327
255	0x43f5655e	490.79193

fc2.weight f4 [300, 402]
0	0xbc9cf0b5	-0.019157747
1	0xbe82318b	-0.25428423
2	0x3ec01bd0	0.3752122
3	0xbe32d32f	-0.17463373
4	0xbe77af91	-0.24188067
5	0x3e8dc1e1	0.2768698
6	0x3e2b99b2	0.16757849
7	0xbe9416be	-0.289236
8	0x3e36f976	0.178686
9	0xbba5e6ba	-0.005062905
10	0x3ee46094	0.44604933
11	0x3f06dc6d	0.52680093
12	0xbe63ef8a	-0.22259346
13	0xbeb091e3	-0.34486303
14	0xbd164d32	-0.036694713
15	0xbe9f8f06	-0.31163806
16	0xbdfa9ab8	-0.122365415
17	0xbec79cea	-0.38986903
18	0x3e3677f2	0.17819193
19	0x3e2b138e	0.16706678
20	0xbf3bb60a	-0.73324645
21	0x3e80519e	0.2506227
22	0x3ebbd9b6	0.36689538
23	0x3f040545	0.5157054
24	0xbece4433	-0.40286407
25	0x3f065180	0.5246811
26	0xbe1d2013	-0.15344267
27	0x3d8c3656	0.06846301
28	0xbe6c4c14	-0.23075897
29	0xbcff8773	-0.031192517
30	0xbf7d3ebf	-0.9892387
31	0xbef2ba68	-0.47407842
32	0xbf07f1c2	-0.5310327
33	0x3dae90b1	0.085236914
34	0xbe4170d3	-0.18890695
35	0x3ca87bab	0.020566782
36	0xbe0a4bc8	-0.13505471
37	0xbe08893a	-0.13333598
38	0xbe443b43	-0.19163232
39	0xbeac0615	-0.3359839
40	0x3e7ebe81	0.24877359
41	0x3e2bfc54	0.16795474
42	0x3d84de27	0.06487685
43	0xbd4c99ae	-0.049951248
44	0x3ea917a0	0.33025837
45	0x3d4d5b5e	0.050135963
46	0xbe141b3a	-0.14463511
47	0xbf011af2	-0.5043174
48	0x3e307f2c	0.17236012
49	0x3eeb8e2b	0.46006903
50	0x3d92cdf9	0.071681924
51	0xbf49fbb2	-0.7889968
52	0x3f2749d0	0.65347004
53	0xbd2cd0a9	-0.04219118
54	0xbe42394a	-0.18967167
55	0x3e009bcd	0.12559433
56	0xbeff80ff	-0.49903104
57	0x3beb06be	0.0071724346
58	0xbdded559	-0.108805366
59	0x3e410a36	0.18851551
60	0x3d839e09	0.06426627
61	0xbcfd82b7	-0.030946119
62	0xbe819222	-0.25306803
63	0x3b9e0a8f	0.004823036
64	0xbb3970e6	-0.0028296052
65	0xbb60c49e	-0.003429688
66	0x3cd66a1a	0.02617364
67	0x3dcde3b7	0.10053199
68	0xbe631d84	-0.22179228
69	0xbd58a4ac	-0.05289142
70	0xbed552d9	-0.4166477
71	0xbb91b909	-0.0044471067
72	0xbdff7e97	-0.12475317
73	0x3c846b18	0.016164348
74	0x3d551a11	0.052026812
75	0x3e389961	0.1802726
76	0x3e4ed9ed	0.2020032
77	0x3d1ba4be	0.037998907
78	0x3e216cd6	0.15764174
79	0xbe874cb0	-0.26425695
80	0xbdc960ad	-0.098328926
81	0xbd8a2f99	-0.0674736
82	0x3ef89839	0.48553637
83	0x3df837d5	0.12120024
84	0xbe18db30	-0.14927363
85	0xbd731d5a	-0.059354164
86	0x3e90e236	0.28297585
87	0xbc96f7cf	-0.018428711
88	0x3e2cd9c1	0.16879942
89	0xbd9f4682	-0.0777712
90	0xbcfa7dc4	-0.030577548
91	0xbe0beac3	-0.13663773
92	0x3dbce81b	0.09223958
93	0x3d745283	0.059649
94	0x3eae2e9b	0.34019932
95	0x3edce864	0.4314605
96	0x3e2212d6	0.15827498
97	0xbdcfc2b4	-0.101445585
98	0xbb9ab6eb	-0.0047215126
99	0xbe951dff	-0.29124448
100	0xbab35c18	-0.0013684062
101	0xbe866207	-0.26246664
102	0x3e8a5948	0.2702124
103	0x3f09abe3	0.53777903
104	0xbcb72f1b	-0.022361329
105	0xbde65bf8	-0.112480104
106	0x3eb254ec	0.34830415
107	0x3de203a2	0.11035849
108	0x3e71be99	0.23607863
109	0xbcf3c291	-0.029755862
110	0x3d13c57f	0.03607702
111	0x3dc47ece	0.095944986
112	0x3e1442a6	0.1447855
113	0xbd88f5cc	-0.06687507
114	0x3baef881	0.0053396826
115	0xbc92ab5c	-0.017903976
116	0x3e184c42	0.1487284
117	0x3d835905	0.064134635
118	0x3df96585	0.121775664
119	0xbe20098a	-0.15628639
120	0xbe503eeb	-0.20336501
121	0xbc8ab7cd	-0.016933346
122	0xbf1830a5	-0.59449226
123	0x3be91120	0.007112637
124	0x3db7f175	0.08981601
125	0x3e3fbfb3	0.18725471
126	0xbf018160	-0.50588036
127	0x3c3091a5	0.010776912
128	0xbc10b85a	-0.008833015
129	0x3e109180	0.14118004
130	0x3d2d726e	0.042345457
131	0xbda940cf	-0.082643144
132	0x3ea6473e	0.32476228
133	0xbd487b45	-0.048945684
134	0x3d873d26	0.0660346
135	0x3cbb6266	0.022874068
136	0xbe6da1b0	-0.2320621
137	0xbdf6609b	-0.12030145
138	0x3e1d9518	0.15388906
139	0xbd4d9a2e	-0.050195865
140	0x3d4f76db	0.05065046
141	0x3eafc5b9	0.34330538
142	0xbe75b533	-0.23994903
143	0x3d918994	0.07106319
144	0x3b76de0f	0.0037668978
145	0xbe2460de	-0.16052577
146	0x3b5826e2	0.003298216
147	0xbe112112	-0.14172772
148	0xbcf34602	-0.029696468
149	0xbf0e344c	-0.5554855
150	0x3de1b679	0.11021132
151	0xbe2a588f	-0.16635345
152	0xbd83c65d	-0.06434319
153	0x3c3ee960	0.011652321
154	0xbd44b74d	-0.04802637
155	0xbe67b545	-0.22627743
156	0x3beda7c9	0.0072526676
157	0xbd9b1247	-0.075718455
158	0x3d30b932	0.043145366
159	0x3e6f8ff6	0.2339476
160	0xbdf74dd7	-0.12075394
161	0x3e12459b	0.14284365
162	0x3e932c64	0.28744805
163	0xbe6b6934	-0.2298935
164	0xbe316812	-0.17324856
165	0xbea6abb7	-0.32552883
166	0x3e4157e2	0.18881181
167	0xbe903886	-0.28168124
168	0x3e89d89c	0.26923072
169	0x3bf6c532	0.0075308317
170	0xbdde2cb8	-0.10848373
171	0xbd8c9cf1	-0.06865872
172	0x3e711265	0.23542173
173	0x3e87c10f	0.2651448
174	0xbe1eee56	-0.15520605
175	0x3eb02a7d	0.34407416
176	0xbda7f73d	-0.08201454
177	0xbe9f0bb5	-0.3106362
178	0xbe4cb8fe	-0.19992444
179	0xbf0a66d8	-0.5406318
180	0x3d7b0d98	0.06129226
181	0xbdfb0b2f	-0.122579925
182	0x3d4acfc1	0.049514536
183	0x3cd3ef84	0.025871046
184	0xbe8b63ec	-0.27224672
185	0x3bf8da99	0.0075944182
186	0xbe1f98c2	-0.15585616
187	0xbee47458	-0.44620013
188	0x3da90aff	0.082540505
189	0x3dd48118	0.10376185
190	0xbda19d45	-0.07891325
191	0xbdebebdb	-0.11519595
192	0xbd2ed4b5	-0.042683322
193	0xbdbcb865	-0.09214858
194	0x3db90d0f	0.09035694
195	0xbe8cbd71	-0.27488282
196	0x3e34fb8f	0.17674087
197	0x3e195b56	0.14976248
198	0xbd36ea49	-0.044657025
199	0x3e361590	0.17781663
200	0x3e6f3295	0.2335914
201	0xbdc29dc5	-0.095027484
202	0xbf34052a	-0.7032038
203	0x3e6ed376	0.23322853
204	0x3dad575f	0.0846393
205	0xbefcd32f	-0.4937987
206	0x3f746e65	0.9548095
207	0xbd837759	-0.06419248
208	0xbd07642f	-0.033054527
209	0xbef58ea8	-0.479604
210	0xbec3731c	-0.3817376
211	0xbdaf96e3	-0.08573701
212	0x3ddc2a65	0.107502736
213	0x3e859149	0.26087406
214	0x3c8e9a8e	0.017407682
215	0xbd3a8482	-0.045536526
216	0xbe984a5b	-0.2974423
217	0x3da83ed4	0.082151085
218	0xbe916f27	-0.28405115
219	0x3e96f50a	0.29483825
220	0xbdbfdc18	-0.093681514
221	0x3e2d82a9	0.16944374
222	0xbe5bfcdc	-0.21483177
223	0xbe8e9182	-0.2784539
224	0xbe63cf77	-0.2224711
225	0x3edec041	0.43506053
226	0xbdab3e89	-0.08361537
227	0xbe9b5aee	-0.3034281
228	0x3edebace	0.43501896
229	0x3ddf0743	0.10890057
230	0xbd2f0a15	-0.042734224
231	0xbf3183c7	-0.693417
232	0x3dc5cdc7	0.096583895
233	0x3e5a23f5	0.21302779
234	0x3da1267a	0.07868667
235	0xbdac9b09	-0.08428008
236	0xbe75ee0c	-0.24016589
237	0x3c561b7f	0.013068079
238	0x3e0428e3	0.12906222
239	0xbe96cb07	-0.29451773
240	0x3cff176d	0.0311391
241	0x3e7dd4a6	0.2478815
242	0xbe37e79e	-0.17959449
243	0xbea4bb5a	-0.32174188
244	0xbdd3f38e	-0.10349189
245	0xbec1b0ea	-0.37830287
246	0x3da30239	0.07959408
247	0xbe102771	-0.14077546
248	0xbe3fd463	-0.18733363
249	0xbf9b80a8	-1.2148638
250	0x3e291515	0.16511948
251	0xbf129e37	-0.57272667
252	0x3e1f7f32	0.15575865
253	0xbd231222	-0.039812215
254	0xbd162328	-0.03665462
255	0xbce255b4	-0.027628757
