checkpoint_actor1.pth (torch_old, 536766 bytes, 14 tensors)

fc1.weight f4 [400, 24]
0	0xbf2ba8a5	-0.67054206
1	0xbf1b83b4	-0.6074784
2	0x3d090616	0.03345307
3	0xbe1933ed	-0.14961214
4	0x3e159089	0.14605917
5	0xbf3510c7	-0.70728725
6	0xbcbdd0dd	-0.023170883
7	0xbe0a94a9	-0.13533272
8	0xbe896280	-0.26832962
9	0xbeb730b1	-0.35779336
10	0xbd752a9e	-0.059855096
11	0x3d04b92d	0.03240316
12	0x3eedd209	0.46449307
13	0x3d199565	0.03749599
14	0xbc135dd7	-0.008994541
15	0x3d2f73da	0.042835094
16	0xbd58f9e5	-0.052972693
17	0xbe5515e0	-0.20809126
18	0x3d84f793	0.064925335
19	0x3f09cfbf	0.5383262
20	0x3f20759d	0.62679464
21	0x3faf2f81	1.3686372
22	0x3d830068	0.06396562
23	0x3f1c704b	0.61108845
24	0xbee2264d	-0.44169846
25	0x3da7c3a1	0.0819161
26	0x3b108c37	0.002205623
27	0x3e641445	0.22273357
28	0x3f232b6f	0.6373815
29	0xbf2f06a7	-0.68369526
30	0x3cfee972	0.031117175
31	0x3e2ebcae	0.17064163
32	0xbeec0bb8	-0.4610269
33	0x3e907768	0.282161
34	0xbdf32128	-0.118715584
35	0x3f2565e8	0.6460862
36	0x3e74450b	0.23854463
37	0xbe2e7600	-0.17037201
38	0xbdfc2fd6	-0.123138115
39	0x3f269ad8	0.6508002
40	0xbeaa2174	-0.33228648
41	0x3ef2966e	0.47380394
42	0x3e7496aa	0.23885599
43	0x3f4c17e4	0.79723954
44	0x3f03dd02	0.51509106
45	0x3ea28a12	0.31745964
46	0x3e6547b1	0.2239063
47	0x3f389b56	0.72112024
48	0xbdf9df8b	-0.122008406
49	0x3e78865c	0.24270004
50	0x3dc2f1b9	0.09518761
51	0xbf1ccead	-0.6125286
52	0x3e59b044	0.21258646
53	0xbec18af0	-0.37801313
54	0x3dd3b0bd	0.103364445
55	0xbf0e089b	-0.5548188
56	0xbc0ad44c	-0.008473467
57	0x3d7649ea	0.060129084
58	0xbcd94a3a	-0.026524652
59	0xbf79364d	-0.9734848
60	0x3daceadb	0.084432326
61	0xbf6a7cc9	-0.9159666
62	0x3d347147	0.044053342
63	0xbf71729d	-0.9431551
64	0xbecf2d7a	-0.40464383
65	0xbea60d49	-0.3243201
66	0xbe343dbb	-0.17601673
67	0xbf190e4b	-0.59787434
68	0x3c1e8112	0.009674327
69	0xbf946a51	-1.1594945
70	0xbe0bf267	-0.13666688
71	0xbf1e888c	-0.61927104
72	0x3f52d77b	0.8236005
73	0x3e8183b4	0.25295794
74	0xbe02163e	-0.12703797
75	0x3eaea90e	0.34113353
76	0xbe14959c	-0.14510196
77	0xbf037e93	-0.5136501
78	0xbe351728	-0.17684615
79	0x3ed11a44	0.40840352
80	0x3f3789e4	0.7169478
81	0x3e3408e4	0.17581517
82	0xbd836f05	-0.0641766
83	0x3e5daa1c	0.21646923
84	0xbedb16f2	-0.42790943
85	0xbeaab26f	-0.3333926
86	0xbdbb02e1	-0.091314085
87	0x3e7382ad	0.23780318
88	0x3f6733af	0.9031324
89	0x3dfc37a1	0.12315298
90	0xbe848e1d	-0.25889674
91	0x3e9b8077	0.30371448
92	0xbf75ed6d	-0.9606541
93	0x3df435be	0.11924313
94	0xbe82a3cb	-0.2551559
95	0x3e8a46b1	0.27007058
96	0x3e497d0a	0.19676605
97	0xbde29885	-0.11064247
98	0x3d787c84	0.060665622
99	0xbe9b611f	-0.30347535
100	0x3e0e8757	0.13918816
101	0xbebbdd9e	-0.36692518
102	0x3cc6b1be	0.024254676
103	0xbe9d398f	-0.30707976
104	0x3ea58fd3	0.32336292
105	0xbdb91c8a	-0.090386465
106	0x3e0f321d	0.1398396
107	0x3e548fc4	0.20757967
108	0xbfae02b1	-1.3594571
109	0xbed1ceaa	-0.40977985
110	0x3d87736e	0.06613813
111	0x3e8c19f1	0.27363542
112	0x3f079823	0.5296652
113	0xbdfe5b7c	-0.12419793
114	0xbd1acbf5	-0.037792165
115	0x3d4c8b05	0.049937267
116	0xc00c283a	-2.1899552
117	0xbe3130a3	-0.1730371
118	0xbdaa3911	-0.08311666
119	0x3d43c21d	0.047792543
120	0x3e745dff	0.23863982
121	0xbf98ce4e	-1.1937959
122	0xbc08e9ca	-0.008356521
123	0x3e5565ca	0.2083961
124	0xbeaa6d87	-0.33286688
125	0x3ee61a0b	0.44941744
126	0x3cc394e6	0.023874711
127	0x3e8232c4	0.25429356
128	0x3f1e382c	0.6180446
129	0xbfa6049f	-1.297016
130	0xbc091b5f	-0.008368342
131	0x3eacf7fb	0.33782944
132	0x3d418dac	0.04725425
133	0x3ea8c004	0.32958996
134	0x3ce65548	0.028116837
135	0x3e9134e7	0.28360674
136	0x3f62c4c7	0.8858151
137	0xbfb742b7	-1.4317235
138	0x3dd6dc63	0.10491254
139	0xbec088ff	-0.3760452
140	0x3f09b232	0.5378753
141	0xbf215886	-0.630257
142	0x3da5566f	0.080731265
143	0xbecb4a4d	-0.39705124
144	0x3f0039a2	0.5008794
145	0xbf59ed10	-0.85127354
146	0xbd7f67e8	-0.062354952
147	0x3ecf02b8	0.40431762
148	0x3d00d3c0	0.03145194
149	0xbf938f8d	-1.1528183
150	0xbde6a9e2	-0.11262871
151	0x3eb68860	0.3565092
152	0x3eedb374	0.46425974
153	0xbf71eac5	-0.94498855
154	0xbd375588	-0.044759303
155	0x3e6c606b	0.23083656
156	0x3e280e86	0.1641179
157	0xbeff847a	-0.4990576
158	0xbdf36ec4	-0.11886361
159	0x3e988bb8	0.29794097
160	0x3f04c5f0	0.5186453
161	0xbf7d9b33	-0.9906494
162	0xbe18ad0b	-0.1490976
163	0xbe1d205b	-0.15344374
164	0x3f542674	0.82871175
165	0xbf69cb4d	-0.9132584
166	0xbde3212d	-0.11090312
167	0xbe0cb9f8	-0.13742816
168	0xbc17774f	-0.009244754
169	0xbd48014d	-0.048829366
170	0xbe2e2a9e	-0.17008445
171	0x3e16d079	0.14727964
172	0x3e33a1bf	0.1754217
173	0xbe8e9c50	-0.27853632
174	0xbe500a80	-0.20316505
175	0x3db7694b	0.0895563
176	0xbc6d5e2d	-0.014487785
177	0xbd8bac01	-0.068199165
178	0x3cce681e	0.025196131
179	0x3e80f1c5	0.25184456
180	0x3e41116e	0.18854305
181	0xbe5f9ad1	-0.21836402
182	0x3d48ba27	0.049005654
183	0x3e6326cd	0.2218277
184	0xbdb5fc64	-0.0888603
185	0xbdb4b4ea	-0.08823569
186	0xbdcdd441	-0.1005025
187	0x3da2250a	0.07917221
188	0x3e7c88d4	0.24661571
189	0xbe290066	-0.16504058
190	0xbe113b80	-0.14182854
191	0x3c43d926	0.011953628
192	0xbeb8a7eb	-0.3606561
193	0xbf0d226a	-0.55130637
194	0xbd7d355a	-0.06181846
195	0xbecbb8b0	-0.39789343
196	0xbe3ae560	-0.18251562
197	0xbf97dc04	-1.1864018
198	0xbd8cb972	-0.068713084
199	0xbed69dc9	-0.41917256
200	0xbdc2f17d	-0.095187165
201	0xbf2ffeab	-0.6874797
202	0x3d187822	0.037223943
203	0x3e06dbdf	0.13169812
204	0xbefbbb9f	-0.4916658
205	0xbf9088ea	-1.1291783
206	0x3d9cc3a7	0.07654505
207	0x3dc633ef	0.09677874
208	0xbdd59d8a	-0.10430439
209	0xbf06c4c8	-0.52644014
210	0x3e09c737	0.134549
211	0x3f7702b1	0.9648848
212	0xbe8ea95e	-0.27863592
213	0xbbd5e9cd	-0.0065281154
214	0x3e1d581a	0.1536564
215	0x3f7992ad	0.97489434
216	0xbd869c51	-0.06572784
217	0xbf91bd16	-1.138583
218	0xbd553109	-0.052048717
219	0xbed1a457	-0.40945694
220	0x3e8561a3	0.26051053
221	0xbcc5f086	-0.024162542
222	0x3cd66c50	0.026174694
223	0xbede563f	-0.43425176
224	0x3f06cf19	0.52659756
225	0xbfa09da4	-1.2548108
226	0x3d6b6c8b	0.05747656
227	0x3ea59381	0.323391
228	0xbe8d18d4	-0.27558005
229	0xbdb604ff	-0.08887672
230	0x3d6739a9	0.056451473
231	0x3e8f99c1	0.28046992
232	0x3f6354b3	0.88801116
233	0xbfc37956	-1.5271404
234	0x3cbb712d	0.022881115
235	0xbe182c70	-0.14860702
236	0xbf884296	-1.064532
237	0x3efd1608	0.4943087
238	0x3cb1e411	0.021715196
239	0xbe6ddd22	-0.23228887
240	0x3e8e5263	0.2779723
241	0xbf7a556d	-0.977866
242	0x3d14898d	0.03626399
243	0x3e855e33	0.2604843
244	0xbd089ac4	-0.03335072
245	0xbfb90c7c	-1.4456935
246	0xbc77e168	-0.015129425
247	0x3e52fd6f	0.2060449
248	0x3e9cb39d	0.30605784
249	0xbfafece7	-1.3744172
250	0xbd0d4b86	-0.034495853
251	0xbe795cca	-0.24351802
252	0x3e14e481	0.14540292
253	0x3c872933	0.016499138
254	0xbd92a6bf	-0.071607105
255	0xbe584428	-0.2111975

fc1.bias f4 [400]
0	0x3e3598c2	0.17734054
1	0x3d2021f4	0.03909488
2	0xbd1eeb90	-0.03879887
3	0x3e201c74	0.15635854
4	0x3c1b9a99	0.009497308
5	0xbb17a44e	-0.0023138705
6	0x3bbeabd1	0.005818822
7	0xbe0181e5	-0.12647207
8	0xbd74c838	-0.059761256
9	0xbe3c5082	-0.18390086
10	0xbc9f9c66	-0.019483756
11	0xbe49c649	-0.19704546
12	0x3cff816a	0.03118964
13	0x3a59f6f8	0.0008314694
14	0x3d981d24	0.07427433
15	0xbe023186	-0.12714204
16	0xbaaaa30a	-0.001301856
17	0xbd6b70e2	-0.0574807
18	0xbdf5b6d3	-0.119977616
19	0x3e254c3c	0.16142362
20	0xbe4e2b4e	-0.20133707
21	0x3e13f269	0.14447941
22	0xbd50b197	-0.050950613
23	0xbdea81d2	-0.114505425
24	0xbe4b620f	-0.19861625
25	0xbe4648a5	-0.19363649
26	0xbd910161	-0.07080341
27	0x3e06d7c6	0.13168249
28	0x3d25f0b1	0.040512744
29	0xbe1825ed	-0.14858218
30	0x3e2fa750	0.17153668
31	0x3e2b3fe2	0.16723588
32	0x3dad4924	0.08461216
33	0x3e4c20a0	0.1993432
34	0x3e0b3992	0.1359618
35	0x3cf34699	0.02969675
36	0x3e10f6e0	0.14156675
37	0xbdee5527	-0.11637335
38	0xbcd75461	-0.026285352
39	0xbddcd954	-0.107836396
40	0xbd16e404	-0.036838546
41	0xbe256ddf	-0.16155194
42	0x3e0ddbbd	0.13853355
43	0xbda53726	-0.08067159
44	0x3d84f248	0.06491524
45	0x3e3f74d2	0.18696907
46	0x3d8d2a10	0.068927884
47	0x3c32dc9d	0.010916856
48	0x3e4fc517	0.20290028
49	0xbe4ed0b4	-0.20196801
50	0x3e4367ab	0.19082515
51	0xbe3509e0	-0.17679548
52	0x3e4d59ff	0.20053862
53	0x3cab1017	0.020881696
54	0xbe0049ab	-0.12528102
55	0xbd8d69a1	-0.06904913
56	0xbdd6a86d	-0.104813434
57	0x3dfd100b	0.123565756
58	0x3e3390b9	0.17535676
59	0x3dfcd3e3	0.12345102
60	0x3e18d76a	0.14925924
61	0x3e49a14f	0.1969044
62	0xbe372484	-0.17885023
63	0x3dad825c	0.0847213
64	0x3c88e0c9	0.016708748
65	0x3dfcf85c	0.12352058
66	0x3d6bf260	0.057604194
67	0x3bf5858f	0.007492728
68	0x3e0c0ff8	0.13677967
69	0xbda912c7	-0.082555346
70	0xbe1f5fae	-0.15563843
71	0xbe15be88	-0.14623463
72	0x3e16d332	0.14729002
73	0x3babccf3	0.0052429377
74	0xbe29a353	-0.1656621
75	0x3d908e8c	0.07058439
76	0xbbc56e1c	-0.006025089
77	0xbdf95180	-0.12173748
78	0x3e371684	0.17879683
79	0x3df6937a	0.12039848
80	0x3e30fd04	0.17284018
81	0xbd061e70	-0.03274387
82	0xbe01390c	-0.12619418
83	0xbe300ffb	-0.17193596
84	0x3cc5e827	0.02415855
85	0xbe124864	-0.14285427
86	0x3dfadab6	0.12248747
87	0xbe3db5e1	-0.18526413
88	0xbe1593ad	-0.14607115
89	0x3cf048e3	0.02933163
90	0x3d4b852b	0.049687546
91	0xbcdb0346	-0.02673496
92	0xbd2dc191	-0.042420927
93	0xbdd3ccfa	-0.103418306
94	0xbd6da848	-0.058021814
95	0x3cdd2b56	0.026998203
96	0xbe3b841d	-0.18312116
97	0xbd115edd	-0.03549086
98	0xbd042425	-0.032261033
99	0x3c04afe4	0.008098576
100	0x3e1b5a50	0.1517117
101	0xbe2f3a68	-0.17112124
102	0x3d908923	0.07057407
103	0x3d9afb50	0.07567465
104	0x3d681690	0.056662142
105	0xbd6e85e9	-0.058233175
106	0x3df3d803	0.11906435
107	0xbe13ea84	-0.1444493
108	0xbda54b2b	-0.08070978
109	0xbbb3c7a4	-0.0054864455
110	0xbcf03078	-0.029319987
111	0xbe4ebcb3	-0.2018917
112	0x3de44481	0.111458786
113	0x3df8875a	0.12135191
114	0xbe396fde	-0.1810908
115	0x39cdd18c	0.00039256772
116	0xbe2fee93	-0.17180853
117	0xbd17fae3	-0.0371045
118	0x3cc6c28d	0.02426269
119	0x3e35ccec	0.17753953
120	0x3e130ead	0.14361067
121	0x3dd79fe3	0.10528543
122	0x3ce07ab9	0.027402269
123	0xbe40a13e	-0.18811509
124	0xbd864e9b	-0.065579616
125	0x3e3a8e07	0.18218242
126	0x3c9a50e5	0.018837402
127	0xbd3c6b0d	-0.04600053
128	0xbd8fa4e3	-0.070138715
129	0x3dc99591	0.09842981
130	0x3e031ed6	0.12804732
131	0xbc91e871	-0.017811032
132	0x3d74e062	0.0597843
133	0x3e1a1bf0	0.1504972
134	0x3e0b6da5	0.13616045
135	0x3dd7a6dc	0.10529873
136	0x3e0e6a9a	0.13907853
137	0x3d97e4f5	0.07416717
138	0x3d6446ac	0.05573146
139	0xbe4daf78	-0.20086467
140	0xbd243634	-0.040090755
141	0xbd707e5a	-0.05871425
142	0x3d3baec6	0.045820974
143	0xbd6ed5e3	-0.058309447
144	0xbe3edab7	-0.1863812
145	0x3e2f00a9	0.17090096
146	0xbdb40512	-0.087900296
147	0xbe4073a1	-0.18794109
148	0xbdae606e	-0.08514486
149	0x3d2f1af9	0.042750333
150	0xbd8e182c	-0.06938204
151	0xbe541ef7	-0.20714937
152	0x3d87ef73	0.06637468
153	0x3da128df	0.07869124
154	0x3e429464	0.19001919
155	0xbe4df8ae	-0.20114395
156	0xbd1e6a14	-0.038675383
157	0xbd9f4eb7	-0.077786855
158	0xbd914354	-0.0709292
159	0x3b643e06	0.0034827008
160	0x3e433de3	0.19066577
161	0xbcb2a6e3	-0.021808093
162	0x3e33d5f0	0.1756208
163	0x3ce2019f	0.027588664
164	0xbdd9ab54	-0.10628381
165	0xbca0e642	-0.019641045
166	0x3dd73226	0.10507612
167	0x3df7f050	0.12106383
168	0xbd8953df	-0.0670545
169	0xbccc9675	-0.024974087
170	0xbe2ec628	-0.17067778
171	0xbe0515c7	-0.12996589
172	0xbd564cb4	-0.052319244
173	0x3df9200d	0.12164316
174	0x3c59a8df	0.013284891
175	0x3ddd36b6	0.10801451
176	0xbe2e36a3	-0.1701303
177	0x3d297c03	0.041378032
178	0xbe290744	-0.16506678
179	0xbd74837b	-0.059695702
180	0x3e2ac43a	0.16676417
181	0x3c0a7e62	0.008452984
182	0xbe1c240c	-0.15248126
183	0xbe4dd9a3	-0.20102553
184	0xbd7d2c04	-0.061809555
185	0xbda47154	-0.08029428
186	0xbe40f1d8	-0.18842256
187	0x3de4331c	0.11142561
188	0x3b961463	0.004580067
189	0xbd026827	-0.03183761
190	0x3e217195	0.15765984
191	0xbe47656e	-0.19472286
192	0x3d886af1	0.066610225
193	0x3e1adee3	0.15124087
194	0x3d33662a	0.043798603
195	0x3de03f20	0.1094954
196	0xbd93d326	-0.07218008
197	0xbe448f5b	-0.19195311
198	0x3e434953	0.1907094
199	0xbe5009c1	-0.20316221
200	0xbda9deb3	-0.0829443
201	0x3e3d6e50	0.18499112
202	0xbdc8142d	-0.09769473
203	0xbd2671b9	-0.040635798
204	0xbdd6787e	-0.10472201
205	0x3d2a5354	0.041583374
206	0xbd965ded	-0.07342134
207	0x3d9be6ca	0.07612379
208	0x3e4ba708	0.19887936
209	0xbe1d03a4	-0.1533342
210	0x3e08409a	0.13305894
211	0xbd51e6c0	-0.05124545
212	0xbe4fe229	-0.20301117
213	0x3db5be7c	0.08874223
214	0xbe0c6ea9	-0.13714088
215	0x3df198e3	0.11796739
216	0xbd14cc4d	-0.03632765
217	0xbdfc6386	-0.1232367
218	0xbe3621e4	-0.17786366
219	0x3d32f87e	0.043694012
220	0xbe496ffe	-0.19671628
221	0x3de33f09	0.110960074
222	0x3d9fcf1c	0.07803175
223	0xbe315324	-0.17316872
224	0x3dda8db4	0.10671559
225	0xbe248185	-0.16065033
226	0x3ca9c3db	0.020723274
227	0xbd7010df	-0.05860984
228	0x3e0b6657	0.13613258
229	0xbe306e9f	-0.17229699
230	0xbd8390fa	-0.064241365
231	0xbd944b62	-0.07240941
232	0xbc915f35	-0.017745594
233	0x3c9b7587	0.01897694
234	0xbe0b1f5d	-0.13586183
235	0x3cf0c388	0.029390112
236	0x3c1944ee	0.009354813
237	0xbdd40416	-0.10352342
238	0x3d45f1d6	0.048326336
239	0x3e1a4a02	0.15067294
240	0x3dd72deb	0.10506805
241	0x3d86c53a	0.06580587
242	0xbdb80d13	-0.08986869
243	0xbe170e85	-0.14751633
244	0x3df7095f	0.12062334
245	0x3d0025ea	0.031286158
246	0x3c816e59	0.015799688
247	0x3dd52fa0	0.104094744
248	0xbdc09511	-0.09403432
249	0xbe2dcbdb	-0.16972296
250	0xbe10c11f	-0.1413617
251	0xbe44aa88	-0.19205678
252	0x3e03d789	0.12875189
253	0x3dfe7a65	0.12425689
254	0xbdc1e823	-0.09468105
255	0xbd3c227d	-0.045931328

bn1.weight f4 [400]
0	0x3f1518d2	0.58241
1	0x3e9e11a5	0.30872837
2	0x3ea664f5	0.324989
3	0x3eac2e6c	0.33629167
4	0x3f23d9c2	0.6400415
5	0x3f5e3db5	0.8681291
6	0x3f17888c	0.5919273
7	0x3e17a84f	0.14810298
8	0x3eeeeda7	0.4666569
9	0x3efa9403	0.4894105
10	0x3e9d6923	0.30744275
11	0x3db27e52	0.087155
12	0x3e58e8d8	0.21182573
13	0x3efc4bff	0.4927673
14	0x3ecf3639	0.40471056
15	0x3f15e04f	0.5854539
16	0x3ed4cc14	0.4156195
17	0x3e8af1c7	0.27137586
18	0x3f1ce1b3	0.6128189
19	0x3f19073b	0.5977666
20	0x3dfe5f3c	0.12420508
21	0x3dc4c991	0.09608758
22	0x3ec1ac8c	0.37826955
23	0x3eeed783	0.46648797
24	0x3ec535fd	0.38517752
25	0x3e533a98	0.2062782
26	0x3f3459d4	0.70449567
27	0x3e7e96ef	0.24862264
28	0x3e86b771	0.2631183
29	0x3f5675c4	0.83773446
30	0x3ed7c260	0.42140484
31	0x3cf14962	0.029453937
32	0x3ecc3850	0.39886713
33	0x3ea78c49	0.32724217
34	0x3df52cb5	0.11971418
35	0x3e05effb	0.13079827
36	0x3ebbf443	0.36709794
37	0x3ec9fed8	0.39452243
38	0x3e6a0b9c	0.22855991
39	0x3f0db0e0	0.55348015
40	0x3f7f97b5	0.9984086
41	0x3e1841a1	0.14868785
42	0x3e817671	0.25285676
43	0x3ed25537	0.4108064
44	0x3f1624f8	0.5865016
45	0x3ec0e3a8	0.37673688
46	0x3b9fa35c	0.004871769
47	0x3e940c2f	0.28915545
48	0x3ec7b513	0.39005336
49	0x3c93c4d1	0.018038185
50	0x3f18829c	0.59574294
51	0x3ea95317	0.33071205
52	0x3ec90034	0.39257967
53	0x3f429c32	0.76019585
54	0x3e154e37	0.14580618
55	0x3edebb9d	0.43502513
56	0x3e1a797b	0.15085404
57	0x3ec13c6d	0.37741414
58	0x3d5e23f8	0.05423352
59	0x3edb3174	0.42811167
60	0x3e577761	0.21041633
61	0x3edd0589	0.43168285
62	0x3f5f569b	0.87241524
63	0x3ee133b7	0.43984768
64	0x3d8dd661	0.06925655
65	0x3eaf4e23	0.342393
66	0x3bce20f5	0.00629055
67	0x3f1ed180	0.6203842
68	0x3e953797	0.29143974
69	0x3c440140	0.011963189
70	0x3ec32789	0.381161
71	0x3ec5c2e0	0.3862524
72	0x3e909d0d	0.2824482
73	0x3f200e97	0.6252226
74	0x3ec8be09	0.39207485
75	0x3b3653b6	0.0027820892
76	0x3ef15614	0.47135985
77	0x3ee49856	0.44647473
78	0x3ee3fa8f	0.445271
79	0x3f3b801e	0.73242366
80	0x3be47d19	0.0069729206
81	0x3f16f1b5	0.58962566
82	0x3dd70d8c	0.10500631
83	0x3eba94e0	0.36441708
84	0x3eeea9d1	0.46613935
85	0x3ec993d2	0.3937059
86	0x3ed577f9	0.41693094
87	0x3e29b5b7	0.16573225
88	0x3f66bab7	0.90128654
89	0x3ddd25cf	0.10798227
90	0x3eaa0115	0.3320395
91	0x3eb00849	0.3438132
92	0x3ec61142	0.38685042
93	0x3e29ded5	0.1658891
94	0x3f054f39	0.5207401
95	0x3ee17d62	0.44040972
96	0x3ed587ff	0.4170532
97	0x3e5c9876	0.21542534
98	0x3dd5d2dc	0.10440609
99	0x3fa0062c	1.2501884
100	0x3d8b1aa0	0.06792188
101	0x3da3b3ec	0.07993302
102	0x3e91ab28	0.28450894
103	0xbb28fee4	-0.0025786692
104	0xb95f1577	-0.00021274934
105	0x3f183716	0.59459054
106	0x3f5deb91	0.8668757
107	0x3d14756e	0.036244802
108	0x3f16f69e	0.5897006
109	0x3ed04961	0.40680984
110	0x3ee13971	0.43989137
111	0x3b8b9e23	0.0042607947
112	0x3f55d2e8	0.8352494
113	0x3f19c6fe	0.60069263
114	0x3eeda7f6	0.46417207
115	0xba989ba7	-0.0011643068
116	0x3df632fa	0.12021442
117	0x3db6b0a6	0.08920412
118	0x3d14856d	0.036260057
119	0x3ea9fe8d	0.3320202
120	0x3e01ce35	0.12676318
121	0x3e9a69c8	0.3015883
122	0x3f2425a7	0.6411995
123	0x3efca97a	0.4934805
124	0x3ef8c41b	0.48587117
125	0x3f464346	0.774464
126	0x3f48e572	0.78475106
127	0x3e1285f1	0.14308907
128	0x3eab6098	0.33472133
129	0x3e341b39	0.1758851
130	0x3e9dcc86	0.30820101
131	0xbc1675a3	-0.00918332
132	0x3d9f1dba	0.07769342
133	0x3ecfb511	0.4056783
134	0x3f111220	0.5666828
135	0x3ebd89fe	0.37019342
136	0x3e8f67f2	0.2800899
137	0x3ecfd32e	0.40590805
138	0x3ee5ed6c	0.449077
139	0x3dded6af	0.108807914
140	0xbc6c71b1	-0.014431403
141	0x3f35cc95	0.7101529
142	0x3eae15ae	0.34000915
143	0x3ee43171	0.4456897
144	0x3edb7926	0.42865866
145	0x3f71324a	0.9421736
146	0x3ecd48ef	0.40094706
147	0x3facc296	1.3496883
148	0x3f4555f8	0.770843
149	0x3e373290	0.17890382
150	0x39bbb852	0.0003580475
151	0x3f7be498	0.9839568
152	0x3f14bf2a	0.58104193
153	0x3de48957	0.11159008
154	0x3c13cac1	0.009020508
155	0x3eeaaf18	0.4583671
156	0x3b3a426f	0.0028420945
157	0x3dbb9872	0.09159936
158	0x3f0d0471	0.550849
159	0x3f32df2b	0.6987178
160	0x3f01fc84	0.50775933
161	0x3f468ef5	0.77561885
162	0x3ebb2678	0.36552787
163	0x3ef08ad5	0.4698092
164	0x3ef1f16a	0.47254497
165	0x3eb70ac0	0.3575039
166	0x3e056a33	0.13028793
167	0x3edb409b	0.42822728
168	0x3f33a832	0.7017852
169	0x3eab781c	0.33490074
170	0x3e19fd76	0.15038094
171	0x3d7cb87f	0.061699387
172	0x3e9bcb1b	0.30428395
173	0x3d15d4c9	0.03657988
174	0x3f0d9342	0.5530282
175	0x3f42bc3d	0.7606848
176	0x3ed16047	0.40893766
177	0x3ed88663	0.4229003
178	0x3eb2f2ec	0.3495096
179	0x3d8a6313	0.06757178
180	0x3ece1b0e	0.40255016
181	0x3ef70f43	0.4825383
182	0x3ef1a8e7	0.47199175
183	0x3dcf6c5e	0.10128091
184	0x3e2171b1	0.15766026
185	0x3efa8121	0.48926643
186	0x3f347b22	0.70500386
187	0x3ecf4b2a	0.40487033
188	0x3eb9d852	0.36297852
189	0x3f129da9	0.5727182
190	0x3e55c6a0	0.2087655
191	0x3f1c552e	0.61067474
192	0x3f1c846d	0.61139566
193	0x3f17262d	0.59042627
194	0x3f006faa	0.50170386
195	0x3ef13dc7	0.47117445
196	0x3e9c7195	0.30555406
197	0x3efdffd9	0.4960926
198	0x3e087fdf	0.13330029
199	0x3f73d33b	0.9524419
200	0x3ebf0459	0.37308004
201	0x3e66da36	0.22544178
202	0x3e4196b3	0.18905143
203	0x3eec7eee	0.4619059
204	0x3ddab3e9	0.106788464
205	0x3ed66445	0.41873375
206	0x3eb7cd10	0.35898638
207	0x3f02d936	0.5111269
208	0x3eeaddac	0.45872247
209	0x3ddf7056	0.10910098
210	0x3f094801	0.53625494
211	0x3ee39150	0.44446802
212	0x3f47aac6	0.77994955
213	0x3c706893	0.01467337
214	0x3e99be4d	0.30028
215	0x3f05b6dd	0.5223215
216	0x3f276465	0.65387565
217	0x3e0741e9	0.13208736
218	0x3e940f7d	0.28918067
219	0x3edd753a	0.432535
220	0x3e000b75	0.1250437
221	0x3f453450	0.7703295
222	0x3b9cca17	0.004784833
223	0x3ee04cbd	0.43808547
224	0xbc99eaf2	-0.018788788
225	0x3ecece77	0.40391895
226	0x3ccc571b	0.024943879
227	0x3eed38b8	0.46332335
228	0x3ea06dba	0.31333715
229	0x3f028643	0.5098612
230	0x3c30b706	0.010785824
231	0x3e1608cb	0.14651792
232	0x3f41b8f3	0.75672835
233	0x3f4890cf	0.7834596
234	0x3fa32574	1.2745805
235	0x3f1326d0	0.574811
236	0x3ec324b0	0.38113928
237	0x3ed877fd	0.42279044
238	0x3f1a83cd	0.6035736
239	0x3f37712f	0.7165708
240	0x3f199c55	0.6000417
241	0x3e5fde4c	0.21862143
242	0x3ea745a9	0.32670334
243	0x3f050c7a	0.5197216
244	0x3f35c692	0.7100612
245	0x3ed986f8	0.42485785
246	0x3f0c6211	0.5483714
247	0x3f2c4fd3	0.673093
248	0x3ec8ea7e	0.39241403
249	0x40072f41	2.1122591
250	0x3f4830b8	0.7819934
251	0x3f2d4c26	0.6769432
252	0x3ee24140	0.44190407
253	0x3f025a92	0.5091945
254	0x3ef6cf7d	0.48205176
255	0x3eb1259b	0.34599003

bn1.bias f4 [400]
0	0xbf0879ce	-0.5331086
1	0xbf1c8193	-0.61135215
2	0xbee03dc0	-0.43797112
3	0xbf09f0ba	-0.53882945
4	0xbf533ab4	-0.8251145
5	0xbf041936	-0.5160097
6	0xbeccef7e	-0.40026468
7	0xbf2127a6	-0.62951124
8	0xbec363e0	-0.38162136
9	0xbf28a386	-0.65874517
10	0xbe046166	-0.1292778
11	0xbeada3e5	-0.33914104
12	0xbf0b438e	-0.54399955
13	0xbeab4455	-0.3345057
14	0xbed6c669	-0.4194825
15	0xbf275456	-0.6536306
16	0xbf416dd8	-0.75558233
17	0x3eb4c2a5	0.35304752
18	0xbf1c057a	-0.60945857
19	0xbf42104f	-0.75806135
20	0xbeefcc65	-0.46835628
21	0xbeb799ca	-0.3585952
22	0xbefc9965	-0.4933578
23	0xbf199117	-0.59987015
24	0x3e5a61b8	0.21326339
25	0xbf14e97d	-0.58168775
26	0xbf3c73c3	-0.7361414
27	0x3acda30e	0.0015688853
28	0xbf472f5a	-0.7780663
29	0x3eef4d77	0.46738788
30	0xbf290dd0	-0.660367
31	0xbdca3a74	-0.0987443
32	0xbef69679	-0.48161677
33	0xbf4367e2	-0.7633039
34	0xbed8632c	-0.42263162
35	0x3dfd01c4	0.123538524
36	0xbf23d22e	-0.63992584
37	0xbf0e5a22	-0.5560628
38	0xbeaa747a	-0.3329199
39	0xbf2230a8	-0.63355494
40	0x3ebee7c9	0.37286213
41	0xbefee082	-0.4978066
42	0xbed465e6	-0.41483992
43	0xbf003bff	-0.50091547
44	0xbe751922	-0.23935369
45	0xbf09ed2a	-0.5387751
46	0xbcd2d53e	-0.025736447
47	0xbec4ab13	-0.3841177
48	0xbf2670bb	-0.65015763
49	0xbd8c9bec	-0.06865677
50	0xbe88dacd	-0.26729432
51	0xbebc55bc	-0.3678416
52	0xbf37e32d	-0.7183102
53	0xbe38797b	-0.18015091
54	0xbf09b0f7	-0.5378565
55	0xbe77647e	-0.24159428
56	0xbf06c0a5	-0.526377
57	0xbf4359d6	-0.76308954
58	0xbe64d5c2	-0.22347167
59	0xbf5aaff5	-0.8542474
60	0xbf16684c	-0.58752894
61	0xbe837f06	-0.2568285
62	0xbf39ef1b	-0.7263047
63	0xbec55254	-0.38539374
64	0xbed0fd42	-0.4081822
65	0xbdf6702d	-0.120331146
66	0xbd36fcc1	-0.04467464
67	0xbea35b7b	-0.31905732
68	0xbf16e871	-0.5894843
69	0xbdaa4eed	-0.08315835
70	0xbf025271	-0.50907046
71	0xbeeecb0c	-0.46639287
72	0x3deaf07b	0.11471649
73	0xbf18d029	-0.5969263
74	0xbe801dab	-0.25022635
75	0xbcf7ee44	-0.030264981
76	0xbf2f805d	-0.6855524
77	0xbecd05e3	-0.40043554
78	0xbee429ef	-0.44563243
79	0xbe8e9cdc	-0.2785405
80	0xbcf0f601	-0.029414179
81	0xbeb91782	-0.36150748
82	0xbedecb88	-0.43514657
83	0xbcf803db	-0.030275276
84	0xbf127611	-0.57211405
85	0xbe829488	-0.25503945
86	0xbea45035	-0.32092443
87	0x3eba5819	0.36395338
88	0xbf00704e	-0.50171363
89	0x3e6196df	0.22030209
90	0xbf0c810b	-0.54884404
91	0xbefb72e8	-0.49111104
92	0xbdd53387	-0.10410219
93	0xbe2caefb	-0.16863625
94	0xbf0737e3	-0.5281965
95	0xbed04afa	-0.40682203
96	0xbea2ab04	-0.317711
97	0xbe8c682f	-0.27423236
98	0xbecb0c6d	-0.39657918
99	0xbd8e936c	-0.06961712
100	0xbec3be56	-0.38231152
101	0xbf0798da	-0.5296761
102	0xbee035d6	-0.43791074
103	0xbcf20efb	-0.029548159
104	0xbc0e4f5e	-0.008685915
105	0xbec9f806	-0.3944704
106	0xbeb0be55	-0.34520212
107	0xbe80f9f6	-0.25190705
108	0xbec06e2b	-0.3758405
109	0xbf4e0ce6	-0.8048843
110	0xbe06b4da	-0.13154927
111	0xbd3f632d	-0.04672544
112	0xbe990b3b	-0.2989138
113	0xbedbd9ff	-0.42939755
114	0xbf1e6d8c	-0.61885905
115	0xbc4f8c49	-0.012667724
116	0xbee6a4d3	-0.45047626
117	0xbee26ce1	-0.44223693
118	0xbe00294c	-0.12515754
119	0xbe929e6a	-0.28636485
120	0x3e7183dd	0.23585458
121	0xbeb7f772	-0.35930973
122	0xbf24e821	-0.644167
123	0xbe8a0a82	-0.26961142
124	0x3e07beb3	0.1325634
125	0xbc771512	-0.015080707
126	0xbf5ed7b1	-0.8704787
127	0xbf016e54	-0.5055897
128	0xbee27643	-0.44230852
129	0xbe460f68	-0.19341815
130	0xbf04210f	-0.51612943
131	0xbd827d71	-0.06371582
132	0xbecc0ae0	-0.39852047
133	0xbf2135f1	-0.62972933
134	0xbefe73b3	-0.49697646
135	0xbda9e132	-0.08294906
136	0xbeec18d2	-0.46112686
137	0xbe869ce6	-0.2629158
138	0xbee274b4	-0.44229662
139	0xbed3eacf	-0.41390082
140	0xbd6245ed	-0.055242468
141	0xbf3d8749	-0.74034554
142	0xbf266bf5	-0.6500848
143	0xbe92c89c	-0.28668678
144	0xbf1fea9f	-0.6246738
145	0xbf1b1b74	-0.60588765
146	0xbe71c2f9	-0.23609532
147	0xbe8e7b3a	-0.2782839
148	0xbeb5d10c	-0.35511053
149	0xbf2b9b17	-0.67033523
150	0xbc018e8a	-0.007907519
151	0xbf0dac3f	-0.5534095
152	0xbe7a8a21	-0.24466754
153	0xbeb80c31	-0.359468
154	0xbcf749cc	-0.030186556
155	0xbee031f8	-0.43788123
156	0xbd5cb319	-0.05388174
157	0xbea15daa	-0.31516773
158	0xbec603d4	-0.38674796
159	0xbe808bb0	-0.25106573
160	0xbf346f57	-0.7048239
161	0x3ce35073	0.027748322
162	0xbe3f2844	-0.18667704
163	0xbe9530ca	-0.29138786
164	0xbf16e071	-0.5893622
165	0xbf658993	-0.89663047
166	0xbedb0bb1	-0.42782357
167	0xbe09a026	-0.13439998
168	0xbeb48f98	-0.35265803
169	0xbf72453c	-0.94636893
170	0xbf14076a	-0.5782381
171	0x3e9e9723	0.30974683
172	0x3ec55a28	0.38545346
173	0xbed812da	-0.42201883
174	0xbe578d30	-0.21049953
175	0xbe9352e5	-0.2877418
176	0xbeb637bd	-0.355894
177	0xbef76cd8	-0.4832523
178	0xbeebaa94	-0.46028578
179	0xbee95126	-0.45569724
180	0xbeea1f51	-0.45727018
181	0xbf1895ac	-0.5960338
182	0xbf5503e2	-0.8320905
183	0xbf02565e	-0.50913036
184	0xbef97803	-0.48724374
185	0xbf266a94	-0.65006375
186	0xbd996c5b	-0.0749137
187	0xbf1cf9c7	-0.6131863
188	0xbd781d9c	-0.060575113
189	0x3ddb25d1	0.10700572
190	0xbf381eaa	-0.7192179
191	0xbf0db971	-0.55361086
192	0xbefc65ec	-0.4929651
193	0xbf2e0ac5	-0.67985183
194	0xbebfa975	-0.37433973
195	0xbea8192c	-0.32831705
196	0xbefb7f56	-0.49120587
197	0xbf1e6c26	-0.6188377
198	0xbf1869a4	-0.59536195
199	0xbe0ec290	-0.13941407
200	0xbe8ed4b6	-0.2789666
201	0xbf0f2287	-0.5591206
202	0xbf225524	-0.63411164
203	0xbebf72f5	-0.37392393
204	0xbed2ef9b	-0.4119843
205	0xbeb62ed5	-0.35582605
206	0xbe9c5591	-0.30534032
207	0xbf278e40	-0.6545143
208	0xbee0a967	-0.43879244
209	0xbe8ebcf9	-0.2787855
210	0xbf338bef	-0.70135397
211	0xbf03a6b3	-0.5142624
212	0xbea37bfa	-0.31930524
213	0xbda48e28	-0.08034927
214	0x3d8d838a	0.06909855
215	0xbed6027e	-0.41798776
216	0xbe1a9661	-0.15096428
217	0xbecb9f7b	-0.3977011
218	0xbedb5947	-0.4284155
219	0xbecdf11c	-0.40223014
220	0xbf05c2aa	-0.5225016
221	0x3e5625fa	0.20912924
222	0xbd157052	-0.03648407
223	0xbf38ad66	-0.72139585
224	0xbdbc3a8a	-0.09190853
225	0xbf3967cb	-0.72424
226	0xbe578f21	-0.21050693
227	0x3dd9fead	0.10644279
228	0xbf4e0952	-0.8048297
229	0xbec14ec2	-0.377554
230	0xbda76c88	-0.081749976
231	0xbf213745	-0.6297496
232	0xbf45367e	-0.77036273
233	0xbf276ca6	-0.6540016
234	0xbee859bf	-0.4538097
235	0xbeb5c9e4	-0.35505593
236	0xbe856ab0	-0.2605796
237	0xbf029bd6	-0.51019037
238	0xbf235b39	-0.6381107
239	0xbec60e4a	-0.38682777
240	0xbf0eb698	-0.55747366
241	0xbf181dd5	-0.5942052
242	0xbed7c9bb	-0.42146096
243	0x3dfeedbc	0.12447688
244	0x3e10c2c6	0.141368
245	0xbee720d2	-0.45142227
246	0x3ee6fde4	0.45115578
247	0xbec9ac15	-0.393891
248	0xbee1a7e6	-0.4407341
249	0x3f875d65	1.0575377
250	0xbf3b399d	-0.73134786
251	0xbf4ba862	-0.79553807
252	0xbe038264	-0.12842709
253	0xbf6615b8	-0.8987689
254	0xbeb576d7	-0.3544223
255	0xbec9691d	-0.39338008

bn1.running_mean f4 [400]
0	0x41268806	10.408209
1	0x40e2eebd	7.091643
2	0xbf29fe57	-0.66403717
3	0xc1b63232	-22.77451
4	0xc1001d07	-8.007087
5	0xc07f0fde	-3.9853435
6	0xc13dd598	-11.864647
7	0xc0051c1f	-2.0798414
8	0x4070e876	3.7641883
9	0xbfd42c30	-1.6575985
10	0xc0abe967	-5.3722415
11	0x40814191	4.0392537
12	0x4191808c	18.187767
13	0x41fd1d98	31.63945
14	0x406b0a76	3.6725135
15	0xc09e01dd	-4.9377275
16	0x4126456a	10.391947
17	0x411613b8	9.379814
18	0x4143df6e	12.242048
19	0x40e27a88	7.0774574
20	0x3ff918bc	1.9460673
21	0xbeb1a780	-0.34698105
22	0xc1013235	-8.074758
23	0xc1243796	-10.263571
24	0xc114e626	-9.306189
25	0x415cf307	13.809333
26	0x406733f3	3.6125457
27	0x40b72bbe	5.7240896
28	0xbbded9ea	-0.0068008797
29	0xc0b76d10	-5.7320633
30	0x411f3275	9.949819
31	0x4001c1af	2.0274465
32	0x41061eed	8.38255
33	0x418e726a	17.805866
34	0xbf934786	-1.1506202
35	0x41694093	14.578265
36	0x418f6826	17.925854
37	0x4066f36a	3.6086068
38	0xc0cc401f	-6.3828273
39	0x4107bd1f	8.483672
40	0x3fe133e1	1.7593957
41	0x3fea8c72	1.832411
42	0xc063df88	-3.5605183
43	0xbf2fab06	-0.68620336
44	0x3f8aea8b	1.0852827
45	0x41332c44	11.198307
46	0x403f3b01	2.9879763
47	0xc0a4e8e0	-5.153427
48	0x4106e22a	8.430216
49	0x3ed75e1c	0.42063987
50	0x41aa0727	21.253492
51	0x3f32a710	0.6978617
52	0x41878072	16.937717
53	0x4066b849	3.6049979
54	0x40a3140d	5.0961976
55	0x4017b177	2.3702066
56	0x411c0b18	9.752708
57	0xc1a4c7e9	-20.597612
58	0xbbdbcfec	-0.006708136
59	0x40ae4ed4	5.4471226
60	0x41111bc4	9.069279
61	0x404f16f1	3.2357752
62	0xc087900e	-4.236335
63	0x3f000fd0	0.5002413
64	0x3f930851	1.1486913
65	0x4022f928	2.5464573
66	0x3e8d7054	0.27624762
67	0xbfe8f28b	-1.8199018
68	0xc125c8bf	-10.36151
69	0x40880410	4.250496
70	0xc0c5dda4	-6.1833057
71	0xc1958232	-18.688572
72	0x41280b75	10.502797
73	0xc0525390	-3.2863503
74	0xbfcbe845	-1.5930258
75	0x3c61841a	0.013764406
76	0xbed9aa46	-0.4251272
77	0x4084775e	4.139571
78	0x40ea0890	7.313545
79	0xc138fdd5	-11.561971
80	0xbef1eddb	-0.47251782
81	0xc15cab0f	-13.791762
82	0xbf86f6ab	-1.0544027
83	0xc19f384d	-19.90249
84	0xc1327457	-11.153403
85	0x41b707af	22.878752
86	0xc07d4964	-3.9576044
87	0xbfb105e6	-1.3829925
88	0xbffbb2da	-1.9663956
89	0x40626e51	3.5379832
90	0x3fc05a32	1.5027525
91	0x3e59cdb7	0.2126988
92	0x3ec7e4c2	0.39041716
93	0xc09cdd05	-4.90198
94	0x416ac373	14.672717
95	0x4190da7f	18.106688
96	0x413b85cb	11.720164
97	0x415a0ad9	13.627648
98	0xbf925fc7	-1.1435479
99	0xc0e4deb9	-7.152188
100	0xc04474e9	-3.0696356
101	0x406db959	3.7144377
102	0x41535c42	13.210024
103	0x3e7af12c	0.24506062
104	0x3efa9558	0.48942065
105	0xc1871cc0	-16.889038
106	0x415797a0	13.474518
107	0x40b52343	5.6605544
108	0x4180185f	16.0119
109	0xc189da28	-17.231522
110	0x4139f5b5	11.622487
111	0xbf88a024	-1.0673871
112	0xc0983808	-4.7568398
113	0x400579fa	2.0855699
114	0xc17a84e3	-15.657443
115	0x3da6a262	0.08136441
116	0x400ae7ec	2.1704054
117	0x410f0de2	8.940889
118	0x40aded09	5.435185
119	0xc1395007	-11.582038
120	0x403ad771	2.9193995
121	0x41941a40	18.512817
122	0xc1868960	-16.817078
123	0x407656be	3.8490443
124	0x40f75684	7.729311
125	0x4189c2a7	17.220045
126	0xc0965c9e	-4.698806
127	0x3f256b99	0.64617306
128	0x41549e18	13.288597
129	0x408fc28e	4.4924994
130	0x40f252b0	7.5725937
131	0x3fe8ebfe	1.8197019
132	0xc091de18	-4.558361
133	0x3f49a36c	0.78764987
134	0x40f73d16	7.726207
135	0xbf88b24b	-1.0679411
136	0x40552796	3.3305411
137	0x41243f2d	10.265424
138	0xc1227e06	-10.155767
139	0xc11856f2	-9.521227
140	0xbf6057aa	-0.87633765
141	0xc0de03c5	-6.93796
142	0xc0829a08	-4.0813026
143	0x4153e1df	13.242644
144	0x411171f5	9.090322
145	0xc0ea0e2a	-7.314229
146	0x41591a07	13.568854
147	0x4106f00c	8.433605
148	0x40ed4018	7.414074
149	0xbfd72a37	-1.6809758
150	0xbeb4feeb	-0.35350737
151	0x402db2fe	2.7140498
152	0x41622b4f	14.135573
153	0x412ef092	10.933733
154	0x3ed62a8a	0.4182933
155	0xc09657f6	-4.6982374
156	0x3f98bde7	1.1932954
157	0x40181548	2.376299
158	0x41387955	11.529622
159	0x40da7366	6.8265867
160	0xc050205a	-3.2519746
161	0x41266fef	10.402328
162	0x41b599d1	22.700106
163	0x41c1a315	24.20463
164	0x3fb9cf70	1.451643
165	0xc08ad175	-4.3380685
166	0x4005a794	2.0883532
167	0x417b8cbf	15.721862
168	0x4157eee5	13.495824
169	0x409eb6ee	4.9598303
170	0x40693c63	3.6443107
171	0x4103d5df	8.239715
172	0x40f7dc8d	7.7456727
173	0xc03be47d	-2.9358208
174	0x40e66c78	7.200741
175	0xc13fe0d3	-11.992389
176	0xc0369e5d	-2.8534157
177	0xc107fcab	-8.4991865
178	0xc108b7b3	-8.544848
179	0x403bfb6e	2.937221
180	0x40ebf395	7.373484
181	0x41055e15	8.335469
182	0x40eccf4b	7.4003043
183	0xc04444b4	-3.0666933
184	0xc01cb6ff	-2.4486692
185	0x3ff47c0f	1.910036
186	0x40fca3e2	7.895005
187	0x408dd4c6	4.4322233
188	0xbfcebf78	-1.6152182
189	0x41603779	14.013543
190	0xc0258a0b	-2.5865505
191	0x3ea4e289	0.32204083
192	0xc13df034	-11.871143
193	0xbf25a1dc	-0.647001
194	0x416baca4	14.729649
195	0xc121250e	-10.071547
196	0xc06b519c	-3.676856
197	0xc1b1bf73	-22.218481
198	0x403515d7	2.829458
199	0xc0d27a0f	-6.5773997
200	0x41a44e2c	20.53817
201	0x4146df4b	12.429515
202	0x4166da56	14.428305
203	0x419c4802	19.53516
204	0xc029f575	-2.6556065
205	0xc1757401	-15.340821
206	0x4188ba9c	17.091118
207	0x40f99009	7.7988324
208	0xc08fba9e	-4.4915304
209	0x40f9c491	7.805245
210	0xc1500eff	-13.003661
211	0x412a290a	10.635019
212	0x40345609	2.8177512
213	0x3f53016e	0.82424057
214	0x4153ecfa	13.245356
215	0x3f917a61	1.1365472
216	0xbfb87677	-1.4411153
217	0x41211361	10.067231
218	0xbffa1aae	-1.9539392
219	0x411e8a5e	9.908781
220	0xbfd25136	-1.6431034
221	0xc0311285	-2.7667553
222	0x3ec35c31	0.38156274
223	0x409612dc	4.689802
224	0xbfc88c50	-1.566782
225	0xc0b86ae9	-5.7630506
226	0x4121dc32	10.116259
227	0x414bef5c	12.745937
228	0xc0dcd7c4	-6.9013386
229	0x41b36786	22.425549
230	0x3ec2e57a	0.38065702
231	0xc0f33e56	-7.6013594
232	0xc1709929	-15.037393
233	0x3f551e44	0.83249307
234	0x40b84892	5.7588587
235	0xc035e08b	-2.84183
236	0xbe7e9b70	-0.24863982
237	0xc056ad08	-3.354311
238	0xc1296452	-10.586992
239	0x418295d7	16.323164
240	0xc1ac5a5f	-21.544127
241	0x40bccfe8	5.900379
242	0x40c1acc0	6.0523376
243	0xc0a6524a	-5.197545
244	0x417f956b	15.973979
245	0x41844138	16.531845
246	0x40018985	2.0240185
247	0x4183c2fe	16.470211
248	0x3f75fefd	0.96092206
249	0xbedce157	-0.4314067
250	0x3dc84761	0.097792394
251	0x40116e40	2.2723541
252	0x408f6621	4.481217
253	0xc0a68940	-5.204254
254	0x417cb3f7	15.793937
255	0xbd7f9464	-0.062397376

bn1.running_var f4 [400]
0	0x428ea7e0	71.32788
1	0x42f1a89f	120.82934
2	0x425a3eeb	54.561443
3	0x434a37e2	202.21829
4	0x43ea3616	468.42255
5	0x42a31c70	81.55554
6	0x42bd8694	94.76285
7	0x4298d2ec	76.41196
8	0x42c3769d	97.73167
9	0x42be144a	95.03963
10	0x4227a03f	41.90649
11	0x4201fa2b	32.494305
12	0x42b816a9	92.04426
13	0x43c24f97	388.6218
14	0x419d1e26	19.63972
15	0x42b9cd3b	92.90084
16	0x428f5b8f	71.678825
17	0x40f190c3	7.548921
18	0x41c4967c	24.573479
19	0x42c12777	96.57708
20	0x438b0f56	278.1198
21	0x42c16b88	96.71002
22	0x429de4b7	78.94671
23	0x42f27999	121.237495
24	0x431d7c70	157.48608
25	0x43231bdb	163.10881
26	0x42ae96af	87.294304
27	0x436898a7	232.5963
28	0x44034a18	525.1577
29	0x428c674b	70.201744
30	0x4301ca99	129.7914
31	0x41c52a3d	24.645624
32	0x43b1c96c	355.5736
33	0x4358919b	216.56877
34	0x42b8bdd5	92.370766
35	0x42259545	41.39577
36	0x4361d4e3	225.83159
37	0x432205ff	162.02342
38	0x42f3bcc9	121.86872
39	0x420ed971	35.712345
40	0x44052d13	532.7043
41	0x42f354e9	121.66584
42	0x423c2dc4	47.044693
43	0x4351a42e	209.64133
44	0x41bda381	23.704836
45	0x429000a6	72.00127
46	0x414a6135	12.648732
47	0x431921f3	153.13261
48	0x43237524	163.45758
49	0x406a1d22	3.6580281
50	0x43148803	148.5313
51	0x4360d76e	224.84152
52	0x43aa52e1	340.6475
53	0x42f287e7	121.265434
54	0x43074329	135.26234
55	0x429c8200	78.25391
56	0x430e2406	142.14072
57	0x42840915	66.01774
58	0x421d3adc	39.30748
59	0x429f7048	79.7193
60	0x425e854a	55.630165
61	0x4235b0c2	45.422615
62	0x41d9818f	27.188261
63	0x4283807e	65.75096
64	0x42b56d3b	90.71334
65	0x422d42ac	43.31511
66	0x416b860c	14.720226
67	0x42336f74	44.85884
68	0x42d6f8c4	107.48587
69	0x4234ed94	45.23201
70	0x42de49f1	111.14442
71	0x432521fa	165.13272
72	0x42f73f16	123.623215
73	0x421e6e8e	39.607964
74	0x43693101	233.19142
75	0x409a5e94	4.824045
76	0x42b9ee6a	92.96565
77	0x42ca6df5	101.21476
78	0x43bd4bdd	378.59268
79	0x415dba48	13.857979
80	0x402242d7	2.5353296
81	0x428f216c	71.56528
82	0x424ddfcf	51.468563
83	0x43014b06	129.29306
84	0x4334d882	180.84573
85	0x4316bec7	150.74522
86	0x42802052	64.063126
87	0x4386a9b7	269.3259
88	0x41994b7c	19.161858
89	0x4368868e	232.5256
90	0x4291216a	72.56526
91	0x429445aa	74.13606
92	0x446940bd	933.01154
93	0x4291a266	72.817184
94	0x427152c5	60.33083
95	0x43aa28d1	340.31888
96	0x42fa7898	125.235535
97	0x434c606d	204.37666
98	0x42b547b5	90.64005
99	0x43754f83	245.3106
100	0x4310be29	144.74281
101	0x42d09002	104.281265
102	0x4339488e	185.28342
103	0x40273e14	2.613164
104	0x3fe505fa	1.7892449
105	0x4300afc1	128.68654
106	0x43a23f49	324.49442
107	0x4241203e	48.281487
108	0x42849241	66.28565
109	0x42bdf33c	94.97507
110	0x42cf9676	103.79387
111	0x3fd6a64e	1.6769502
112	0x41a3c64f	20.47183
113	0x431d02b8	157.01062
114	0x439ff4a0	319.91113
115	0x40dbc629	6.8679395
116	0x426097a4	56.148087
117	0x423a2bb6	46.542686
118	0x4303b751	131.71608
119	0x432fb25b	175.6967
120	0x43a54c39	330.5955
121	0x4328cb67	168.79454
122	0x42bbee0f	93.96496
123	0x42e013c7	112.03863
124	0x42bdde12	94.93373
125	0x424ec42e	51.69158
126	0x422707c1	41.757572
127	0x42c69ecc	99.31015
128	0x4225101a	41.265724
129	0x4329e722	169.90286
130	0x42aee793	87.45229
131	0x4227c8c6	41.946068
132	0x42107769	36.11661
133	0x4309a548	137.64563
134	0x42927d34	73.24454
135	0x42fa71f7	125.22259
136	0x430d224d	141.13399
137	0x427b3d41	62.80982
138	0x43018704	129.5274
139	0x4391c22a	291.5169
140	0x40c186c3	6.0477004
141	0x4289ca1d	68.89475
142	0x428d7ea0	70.747314
143	0x42620217	56.50204
144	0x432b49c4	171.28815
145	0x4390e40e	289.78168
146	0x4300dd20	128.86377
147	0x409ddc3e	4.933135
148	0x42aa9031	85.281624
149	0x433f39ac	191.22528
150	0x41cbc456	25.470867
151	0x41248f0f	10.284926
152	0x4352c374	210.76349
153	0x42992a5f	76.582756
154	0x401cd8d9	2.4507353
155	0x43dcfe86	441.98846
156	0x40278864	2.6176996
157	0x4294b8a0	74.360596
158	0x4239e1d0	46.47052
159	0x42304ada	44.073097
160	0x437c0fac	252.06122
161	0x42d72ee1	107.59156
162	0x430a0e17	138.05504
163	0x438b1502	278.16412
164	0x43084d3c	136.3017
165	0x43723587	242.20909
166	0x43bd0654	378.04944
167	0x43a73d42	334.47858
168	0x4235ac85	45.418476
169	0x42896a21	68.70728
170	0x4323b86f	163.72044
171	0x43d484d6	425.03778
172	0x4227bf77	41.936977
173	0x422a27fd	42.53905
174	0x4237ed69	45.981846
175	0x439458de	296.69427
176	0x4312af46	146.68466
177	0x42c3fe58	97.996765
178	0x439ed19f	317.63766
179	0x42d9df9b	108.93673
180	0x43b8dcf5	369.72623
181	0x42a3ffd0	81.99963
182	0x42b445ac	90.13608
183	0x428485b8	66.26117
184	0x437bb94d	251.72383
185	0x42d5128f	106.53625
186	0x42d2dd6d	105.43247
187	0x4395ba13	299.4537
188	0x42b28afc	89.271454
189	0x42fe1207	127.03521
190	0x430c91ac	140.56903
191	0x4258a532	54.161324
192	0x419f231b	19.892141
193	0x4284d39f	66.41332
194	0x435d5dfe	221.36716
195	0x41833e77	16.4055
196	0x428b2ece	69.591415
197	0x41a2b458	20.338058
198	0x42ef4112	119.62709
199	0x42fff941	127.986824
200	0x42d2ce3c	105.4028
201	0x422d211a	43.282326
202	0x42a09cbc	80.30612
203	0x439d80ad	315.00528
204	0x4382d50a	261.66437
205	0x423b9da6	46.903954
206	0x425eaf74	55.67134
207	0x42e887e8	116.26544
208	0x430520d0	133.12817
209	0x422731f4	41.798782
210	0x41f5e115	30.734903
211	0x438f753a	286.91583
212	0x42b760f7	91.689384
213	0x40c0ab24	6.020891
214	0x4212f187	36.735867
215	0x41758871	15.345811
216	0x43b374ec	358.91345
217	0x42d3cccc	105.899994
218	0x42aca6fa	86.326126
219	0x431bb71f	155.71532
220	0x43389a12	184.60184
221	0x43a1a222	323.26666
222	0x3ffd0bb8	1.9769201
223	0x4358b770	216.71655
224	0x41b7d4d9	22.97893
225	0x43749304	244.57428
226	0x4128a324	10.539829
227	0x437bf8f9	251.97255
228	0x4306605c	134.3764
229	0x432bc3d4	171.76495
230	0x40e64319	7.1956906
231	0x42f3fa79	121.989204
232	0x43624f9a	226.31094
233	0x427da97d	63.415516
234	0x4169384c	14.576244
235	0x436a6e99	234.43202
236	0x43a086aa	321.05206
237	0x4380218d	256.26212
238	0x42aa2082	85.06349
239	0x432d3375	173.201
240	0x4345ec54	197.92316
241	0x42752d64	61.294327
242	0x43e8689c	464.81726
243	0x4390e255	289.76822
244	0x4290b58a	72.35457
245	0x42fe232d	127.0687
246	0x4129350f	10.575454
247	0x42825029	65.15656
248	0x423f759a	47.864845
249	0x40f2f497	7.592357
250	0x42d004e3	104.009544
251	0x42dec946	111.39311
252	0x42f144b8	120.63422
253	0x42fe5a90	127.17688
254	0x437bb344	251.70026
255	0x4337d1d0	183.81958

fc2.weight f4 [300, 400]
0	0x3ed786f2	0.42095143
1	0x3ebc5abe	0.3678798
2	0xbefc3e8f	-0.49266478
3	0x3e02c547	0.12770568
4	0xbd9651d2	-0.07339825
5	0xbdc325b8	-0.09528679
6	0xbee4f2fe	-0.44716638
7	0x3d84156c	0.064493984
8	0xbef9655d	-0.48710147
9	0xbe8a4d2c	-0.27012002
10	0xbdc800e4	-0.09765795
11	0x3e00b7d2	0.12570122
12	0xbed299ce	-0.4113297
13	0x3ec620af	0.3869681
14	0xbeba209c	-0.36353004
15	0xbdfb619d	-0.12274478
16	0xbe95a388	-0.29226327
17	0x3eb7bbb8	0.35885406
18	0x3f75201d	0.95752126
19	0xbe1c779a	-0.1528
20	0x3cd3b02e	0.025840845
21	0xbd0ffbc4	-0.03515221
22	0xbd62657e	-0.05527257
23	0xbd8684ae	-0.065682754
24	0x3de986bb	0.11402651
25	0x3e7b3002	0.24530032
26	0xbf4023b8	-0.750545
27	0x3dbc3471	0.0918969
28	0x3ed5ffca	0.41796714
29	0x3eadd1f6	0.3394925
30	0x3e3cbac7	0.18430625
31	0xbd290973	-0.041268777
32	0xbca4f7d2	-0.020137701
33	0xbf13e4fe	-0.5777129
34	0xbd8c3a51	-0.068470605
35	0xbcde56cf	-0.027141003
36	0xbe288221	-0.1645589
37	0x3f24487c	0.641731
38	0x3e645fcc	0.22302169
39	0xbe8d2a70	-0.2757144
40	0xbe54d7d7	-0.20785461
41	0xbe7a1917	-0.24423634
42	0xbdc20b29	-0.09474785
43	0xbdd34fe1	-0.1031797
44	0xbf6dd018	-0.9289565
45	0xbed5d91e	-0.4176721
46	0xbb83e4bf	-0.0040250714
47	0xbf0cd578	-0.5501323
48	0x3d417500	0.04723072
49	0xbc7432e3	-0.01490471
50	0x3e85d47a	0.2613867
51	0x3e46d0e6	0.19415626
52	0x3f4caa87	0.79947704
53	0x3e926398	0.2859161
54	0xbe89124a	-0.26771766
55	0x3e8cce79	0.27501276
56	0x3d8506ac	0.06495413
57	0x3f96485c	1.1740832
58	0x3e327410	0.17427087
59	0xbf0f3031	-0.5593291
60	0x3ddd8ccf	0.10817873
61	0x3d96dda1	0.07366491
62	0x3cea769b	0.028621009
63	0xbe561896	-0.20907816
64	0x3e17a0cc	0.14807433
65	0x3ecb38e6	0.39691848
66	0xbd2b8080	-0.041870594
67	0x3d917f30	0.07104337
68	0x3f8dae6c	1.1068854
69	0x3dc215dc	0.094768256
70	0xbe197bc9	-0.14988627
71	0xbe0f00e4	-0.13965183
72	0xbf10deed	-0.5659016
73	0x3c35f96a	0.011106828
74	0xbefb3f70	-0.49071836
75	0xbcfdb873	-0.030971741
76	0xbe992f6c	-0.29918993
77	0x3d20f3c9	0.03929499
78	0xbd3ec7d8	-0.046577305
79	0x3e70c9ab	0.2351443
80	0xbd4ba1a8	-0.049714714
81	0x3f2bfbf9	0.67181355
82	0x3eb08729	0.3447812
83	0x3efacfbc	0.48986614
84	0x3e5cbb4b	0.21555822
85	0x3d95a7a5	0.07307366
86	0xbdef2205	-0.116764106
87	0x3ccb5186	0.024819147
88	0xbf2c576a	-0.67320883
89	0xbea48d08	-0.32138848
90	0x3e46ef35	0.19427188
91	0xbedaacce	-0.42709965
92	0xbed64c83	-0.4185525
93	0x3e79298c	0.24332255
94	0xbf281cc9	-0.6566892
95	0x3e9ac783	0.3023034
96	0xbe2594f5	-0.16170104
97	0x3ed6a314	0.41921294
98	0x3e150477	0.14552484
99	0x3e04f0fb	0.12982552
100	0xbe5a47a5	-0.21316393
101	0xbe3be8be	-0.18350503
102	0x3f118068	0.5683656
103	0x3d121640	0.03566575
104	0xbcc1ef20	-0.023673594
105	0xbdb5470b	-0.08851441
106	0x3c8da736	0.017291646
107	0x3c17337e	0.009228585
108	0xbeab1e40	-0.33421516
109	0x3eb8ae3f	0.3607044
110	0xbf645ad8	-0.89201117
111	0x3d38479c	0.044990167
112	0x3e0ee3c6	0.13954076
113	0xbf463ee1	-0.77439696
114	0xbea566bb	-0.3230494
115	0xbd0c4adf	-0.03425109
116	0xbc50f16a	-0.01275287
117	0x3e9cc243	0.3061696
118	0xbd2e811b	-0.042603593
119	0xbd2671dd	-0.040635932
120	0x3e17d20b	0.14826219
121	0xbdde76f2	-0.10862531
122	0xbf1c49b5	-0.6104997
123	0x3abeb5eb	0.0014550065
124	0x3eaead11	0.34116414
125	0xbf072ca6	-0.52802503
126	0x3e54fe4e	0.20800135
127	0x3e26a221	0.16272785
128	0x3e48d621	0.19612934
129	0x3e4cc19d	0.19995733
130	0x3f18a66a	0.5962893
131	0xbd554725	-0.0520698
132	0xbe2119c3	-0.15732484
133	0x3e345f22	0.17614415
134	0xbd46a17b	-0.048493844
135	0xbf06c967	-0.52651066
136	0xbda94646	-0.08265357
137	0xbe99fdd6	-0.30076474
138	0xbea3cb3e	-0.31991
139	0xbe9503ed	-0.29104558
140	0xbc3c7ce0	-0.011504382
141	0x3cc96dca	0.024588484
142	0x3ec7d667	0.39030764
143	0xbdba233d	-0.090887524
144	0xbe90c1bc	-0.28272808
145	0x3ef7d08b	0.48401293
146	0x3ed7c62b	0.42143378
147	0x3d15b65d	0.03655087
148	0x3f297f3e	0.6620978
149	0x3df2ce55	0.11855761
150	0x3d26351d	0.040577997
151	0xbe26a2c7	-0.16273032
152	0x3f0fbf9c	0.5615175
153	0xbe13c394	-0.14430076
154	0xbd6bbcf7	-0.057553258
155	0xbebba6ae	-0.36650604
156	0xbd402189	-0.04690698
157	0xbd8c0ca3	-0.06838348
158	0x3f150fd0	0.5822725
159	0xbde1c0d6	-0.11023109
160	0x3cf01153	0.029305136
161	0x3e46e8d7	0.19424759
162	0x3e80a47d	0.25125495
163	0xbe8471d6	-0.258681
164	0xbeb3426f	-0.35011622
165	0xbd12beb8	-0.035826415
166	0xbe4ea5b6	-0.20180401
167	0xbe9d4c99	-0.30722502
168	0xbda16ae7	-0.07881718
169	0x3d0f975e	0.035056464
170	0x3edf81fa	0.43653852
171	0xbec4a59f	-0.3840761
172	0x3e2d8a7c	0.16947359
173	0xbd0d7066	-0.03453102
174	0x3eb05070	0.3443637
175	0x3ecb9174	0.3975941
176	0x3e9b06c1	0.3027859
177	0x3f52f8e8	0.8241105
178	0x3e5a28b5	0.21304591
179	0x3e390225	0.18067224
180	0x3f525877	0.82166237
181	0x3d9e8fd5	0.077422775
182	0xbe44b3b0	-0.1920917
183	0xbcabdba6	-0.02097876
184	0x3ea32367	0.31862947
185	0xbe4f2756	-0.20229849
186	0xbdc1200a	-0.09429939
187	0x3e954eed	0.29161778
188	0x3dd168a8	0.1022504
189	0x3e9ba099	0.30395964
190	0x3e567f1a	0.20946923
191	0x3dc59569	0.09647638
192	0xbebfe95b	-0.37482724
193	0xbb9f3591	-0.0048586805
194	0x3ec0dd0c	0.37668645
195	0x3ecb0233	0.39650115
196	0x3e9b59fa	0.30342084
197	0x3e6d3d84	0.23167998
198	0x3e00e3bb	0.12586872
199	0xbd177bfa	-0.036983468
200	0x3d2c247d	0.042026985
201	0xbd5a0691	-0.05322892
202	0xbded9d60	-0.116022825
203	0xbd9f86ed	-0.07789407
204	0x3e107046	0.14105329
205	0x3eaaadfa	0.3333586
206	0xbe145589	-0.14485754
207	0x3ecdc8c2	0.4019223
208	0x3ef323c5	0.47488227
209	0xbe571aa6	-0.2100626
210	0x3f0d94bf	0.55305094
211	0xbee44d70	-0.4459033
212	0x3eb2b811	0.34906057
213	0x3ce6207b	0.02809166
214	0xbec56606	-0.385544
215	0x3e3e8740	0.18606281
216	0xbea4029d	-0.32033244
217	0x3e7d3636	0.24727711
218	0xbef73f5a	-0.4829052
219	0xbe84a6f9	-0.2590864
220	0x3ea8da52	0.32979065
221	0xbc4e45b1	-0.012589858
222	0xbd432480	-0.04764223
223	0xbf19a3d8	-0.6001563
224	0xbc62fbcd	-0.013853979
225	0x3f06675e	0.52501476
226	0x3e59c0a8	0.21264899
227	0x3d3212a0	0.043474793
228	0x3f48feb3	0.7851364
229	0x3ef0ad0f	0.47007033
230	0x3bb09e11	0.0053899367
231	0x3e02b61a	0.12764779
232	0x3ee3917e	0.4444694
233	0xbe993c83	-0.2992898
234	0xbea21d02	-0.31662756
235	0x3e8b18fc	0.271675
236	0xbf05b78e	-0.5223321
237	0xbed5da2d	-0.41768017
238	0x3e998a8a	0.2998851
239	0xbf988ca9	-1.1917926
240	0xbf157ccc	-0.5839355
241	0x3df994ff	0.12186622
242	0xbf01a11b	-0.5063645
243	0x3e510510	0.20412087
244	0xbde448d5	-0.11146704
245	0xbe93dd5c	-0.2887982
246	0x3e9e5ee6	0.30931777
247	0x3e5a00d0	0.21289372
248	0x3e85af4f	0.26110312
249	0x3e042f10	0.12908578
250	0xbe2e421c	-0.17017406
251	0xbd9ecc26	-0.07753782
252	0x3d9079ac	0.07054457
253	0xbef48486	-0.47757357
254	0x3e5f0d96	0.21782526
255	0xbf2c9afc	-0.6742399
